p2a10/T3D_car_1_actor.pth (torch_old, 505865 bytes, 5 tensors)

layer_1.weight f4 [400, 13]
0	0x3e997b32	0.29976803
1	0x3f1a00c5	0.60157424
2	0xbdc0a6b0	-0.09406793
3	0x3df61046	0.12014823
4	0x3ea50b2e	0.32235092
5	0x3c074062	0.008255096
6	0x3e96b067	0.2943146
7	0xbf008615	-0.5020459
8	0xbdba5d6a	-0.090998486
9	0x3dc05407	0.09391027
10	0x3d6382d5	0.055544693
11	0xbe47d707	-0.1951562
12	0xbed98d7a	-0.4249075
13	0xbf52b935	-0.82313854
14	0xbeade676	-0.3396489
15	0x3eb38de5	0.35069194
16	0x3debc770	0.11512649
17	0xbe23c75a	-0.15994015
18	0x3f283450	0.6570482
19	0x3ef1e2da	0.47243387
20	0xbef12002	-0.47094733
21	0xbe703bb0	-0.23460269
22	0x3e21e9ad	0.15811796
23	0xbe8bd041	-0.27307323
24	0x3ecf9ff7	0.4055173
25	0xbe93f48b	-0.2889751
26	0xbf60cc6e	-0.87811935
27	0x3d8844ce	0.066537485
28	0x3f07d574	0.5306008
29	0xbec97537	-0.3934724
30	0xbedcbae8	-0.43111348
31	0xbe5d1058	-0.21588266
32	0x3eb117c6	0.3458845
33	0xbd2813fb	-0.04103468
34	0x3eb98188	0.36231637
35	0x3ecf2e73	0.40465125
36	0x3e36edc6	0.17864141
37	0xbd2a740d	-0.04161458
38	0xbf151b60	-0.58244896
39	0xbcef6ac2	-0.02922571
40	0x3e0655f8	0.13118732
41	0x3e9c593d	0.30536833
42	0xbf0e9130	-0.5569029
43	0xbf702eec	-0.938216
44	0xbcdbf337	-0.026849372
45	0x3eb6aa6f	0.35676906
46	0xbdf4c26e	-0.11951147
47	0x3ef15aa1	0.47139457
48	0x3f25dc31	0.6478911
49	0xbf06c8b2	-0.52649987
50	0x3da76396	0.081732914
51	0x3d870e8a	0.0659457
52	0x3dd8373d	0.10557411
53	0x3dcaacd8	0.098962486
54	0xbe78231b	-0.24232142
55	0xbeaf721b	-0.34266743
56	0xbdc38afe	-0.09547995
57	0xbd7e01db	-0.06201349
58	0x3f5af4c4	0.8552973
59	0xbf59f8b3	-0.8514511
60	0xbd867be6	-0.065666005
61	0x3fea5e76	1.8310077
62	0x3e979460	0.2960539
63	0xbec19d52	-0.37815338
64	0xbe82266a	-0.25419933
65	0x3e2e106b	0.1699845
66	0x3cca0672	0.024661276
67	0xbecb63df	-0.39724633
68	0xbf4e0e7d	-0.8049086
69	0xbfa64695	-1.299029
70	0x3ede9010	0.43469286
71	0x3e241e77	0.16027246
72	0xbe4d881e	-0.20071456
73	0xbe80f478	-0.25186515
74	0x3f44674e	0.7672013
75	0x3cac987f	0.02106881
76	0xbeb7c1f2	-0.35890156
77	0x3eb71377	0.35757038
78	0xbe589c37	-0.21153341
79	0xbe8bfdc7	-0.27342054
80	0x3f265242	0.64969265
81	0x3ed29ab9	0.4113367
82	0xbead7469	-0.33877876
83	0x3f230941	0.63685995
84	0x3d4fdf6e	0.05075019
85	0x3e22c6be	0.15896127
86	0xbf32969e	-0.69761074
87	0xbefd1015	-0.49426332
88	0xbed65154	-0.41858923
89	0x3f3029aa	0.68813574
90	0xbe3a5c30	-0.18199229
91	0x3ea304dc	0.31839645
92	0xbe33c976	-0.1755732
93	0xbe13f61a	-0.14449349
94	0xbf523169	-0.82106644
95	0xbe8b26ab	-0.2717794
96	0xbe7bcfe6	-0.24591026
97	0x3ee6bed9	0.4506748
98	0xbea8c185	-0.32960144
99	0xbd745f8a	-0.059661426
100	0x3f62175f	0.8831691
101	0x3f415898	0.7552581
102	0xbf62e6e4	-0.8863356
103	0xbe5bc438	-0.2146157
104	0x3eb20b90	0.34774446
105	0xbe1f8735	-0.15578921
106	0xbe21efa0	-0.15814066
107	0xbec2d34b	-0.3805183
108	0xbf3c3b32	-0.73527825
109	0xbd4b3179	-0.049607728
110	0x3dd61d37	0.10454791
111	0xbf5037ef	-0.8133535
112	0x3ef40985	0.47663513
113	0x3ee65668	0.44987798
114	0xbf151ca6	-0.5824684
115	0x3edb0035	0.42773595
116	0x3ea7202a	0.32641727
117	0xbedba45a	-0.42898828
118	0xbed602aa	-0.41798908
119	0x3e985309	0.2975085
120	0x3f16b983	0.5887682
121	0x3e170378	0.14747417
122	0x3e90a0ac	0.28247583
123	0x3e84ad95	0.25913683
124	0x3e0ec1f8	0.1394118
125	0x3f2b8194	0.66994596
126	0x3f0a6edf	0.54075426
127	0x3f075251	0.5285998
128	0xbe6cf4f7	-0.23140322
129	0xbe826b90	-0.2547269
130	0x3e7affc6	0.24511632
131	0xbeca062c	-0.39457834
132	0x3f7b57de	0.9818095
133	0x3d49d5f7	0.04927632
134	0x3e2a4d2b	0.16631
135	0x3e4a2a9c	0.19742817
136	0xbd641bef	-0.055690702
137	0xbf4ebdc9	-0.8075834
138	0xbf22b80e	-0.63562095
139	0xbf233511	-0.6375285
140	0xbd4a8f9f	-0.049453374
141	0x3e739866	0.23788604
142	0xbde43cf3	-0.11144438
143	0x3f1daa78	0.6158824
144	0xbdc4985a	-0.09599371
145	0xbe287478	-0.1645068
146	0xbf237998	-0.6385741
147	0x3e9138fa	0.28363782
148	0x3f7eadc0	0.9948387
149	0xbed5f8e2	-0.41791445
150	0xbe9522b1	-0.2912803
151	0xbf3bbe14	-0.7333691
152	0x3e0352e5	0.1282459
153	0xbeec7676	-0.4618413
154	0x3eae4918	0.3404014
155	0xbec6bf9f	-0.3881807
156	0xbeb452aa	-0.35219318
157	0x3f0e4b63	0.5558378
158	0xbdc0effd	-0.09420774
159	0x3f55c1f8	0.834991
160	0x3f3dfe00	0.742157
161	0x3ea55a6f	0.32295558
162	0x3e7ba6cc	0.24575347
163	0x3ea75254	0.3268
164	0x3e085d4c	0.1331684
165	0xbed39f55	-0.41332498
166	0x3f6fe825	0.937136
167	0xbf1b07ed	-0.6055897
168	0xbe04e5bc	-0.12978262
169	0x3f4da610	0.80331516
170	0xbe4f8274	-0.20264608
171	0x3f6bfe09	0.921845
172	0xbec99164	-0.39368737
173	0xbda8c10f	-0.08239948
174	0x3d7b5bee	0.061366968
175	0x3f3e45fc	0.7432554
176	0xbd01e911	-0.03171641
177	0x3dd84388	0.105597556
178	0x3e580d80	0.210989
179	0x3f0db52b	0.55354565
180	0xbefcf2c9	-0.4940398
181	0x3dc5643a	0.09638257
182	0x3ec74ea1	0.38927177
183	0x3f398cec	0.72480655
184	0xbe90fc21	-0.2831736
185	0xbe89b727	-0.26897547
186	0xbf38b27d	-0.7214735
187	0x3edd27e5	0.431945
188	0xbea1d027	-0.3160412
189	0xbe00360e	-0.1252062
190	0xbf367bed	-0.71282846
191	0xbe27b02f	-0.16375802
192	0x3ebef83c	0.37298763
193	0xbf258045	-0.6464885
194	0xbd80e14d	-0.06292973
195	0x3e84cb6d	0.25936452
196	0x3d9c0e3b	0.07619902
197	0xbe8f7dde	-0.28025717
198	0xbf5cfad3	-0.8632023
199	0xbe816e27	-0.25279352
200	0xbef65ba3	-0.48116788
201	0x3e824ffa	0.25451642
202	0xbd2b9b17	-0.041895952
203	0x3e20e4e3	0.15712313
204	0x3f8081f4	1.0039659
205	0x3f3ddd65	0.74165946
206	0xbf542bc3	-0.82879275
207	0xbeb28d38	-0.34873366
208	0xbd54b474	-0.051929906
209	0x3f165d29	0.587359
210	0xbec53297	-0.3851516
211	0xbf3aa79d	-0.7291201
212	0xbeb4d1d0	-0.35316324
213	0xbd006d9f	-0.031354543
214	0x3e789d31	0.24278714
215	0xbe8c9283	-0.2745553
216	0x3ea0f1b7	0.31434414
217	0x3f8d12aa	1.1021321
218	0x3f58093f	0.8438911
219	0xbf0d0518	-0.550859
220	0xbd132df2	-0.03593249
221	0xbcfb5a41	-0.030682685
222	0x3e2acbb8	0.16679275
223	0x3f2e5a33	0.68106383
224	0x3ea3d89b	0.32001194
225	0xbe47a0c2	-0.19494918
226	0x3f1d43ff	0.6143188
227	0x3d03cdeb	0.0321788
228	0xbe086518	-0.13319814
229	0xbf9354cf	-1.1510257
230	0xbd9e26ab	-0.07722219
231	0x3f562d70	0.8366308
232	0xbf7169e4	-0.943022
233	0x3e318b0f	0.17338203
234	0x3d3b593d	0.0457394
235	0x3e5ab5f7	0.21358477
236	0xbf54825b	-0.83011407
237	0xbf34fc07	-0.70697063
238	0x3dbbc654	0.091686875
239	0x3f04cc56	0.5187429
240	0x3f25890c	0.6466224
241	0xbed97714	-0.42473662
242	0x3eadba01	0.33930972
243	0x3e352ba9	0.17692436
244	0xbea5d791	-0.32391027
245	0x3f231a2a	0.637118
246	0xbe3fd7f0	-0.18734717
247	0x3e1fafb6	0.15594372
248	0xbe88b0e3	-0.26697454
249	0xbf0ac83c	-0.54211783
250	0xbf550191	-0.83205515
251	0xbf1537b9	-0.5828815
252	0xbe514107	-0.20434962
253	0xbe5aa489	-0.21351828
254	0xbed66e52	-0.41881043
255	0xbe8d4eaf	-0.27599093

layer_1.bias f4 [400]
0	0xbe8cbff4	-0.274902
1	0xbe885322	-0.26625925
2	0xbe40332c	-0.1876952
3	0x3e17c658	0.14821756
4	0x3d8eef34	0.06979218
5	0x3c856ebd	0.016288156
6	0xbea71f00	-0.3264084
7	0x3e673864	0.22580105
8	0x3e8d1172	0.27552372
9	0x3d313fa9	0.0432736
10	0xbe79df13	-0.24401502
11	0xbd0c5dd8	-0.034269184
12	0xbeadb43b	-0.33926567
13	0xbe2289db	-0.158729
14	0x3d41a6a5	0.047278065
15	0x3db5a0e1	0.08868576
16	0xbe27dd10	-0.16392922
17	0xbdf84555	-0.12122599
18	0xbded22fc	-0.11578938
19	0xbdc9630a	-0.09833343
20	0xbc537f61	-0.0129087875
21	0xbea98b94	-0.33114302
22	0xbe0611da	-0.13092747
23	0xbd8abab4	-0.06773892
24	0xbea4fc58	-0.32223773
25	0xbf1f7fb9	-0.62304264
26	0xbdb6169e	-0.08891033
27	0xbe9a3ea2	-0.3012591
28	0xbe6f1a37	-0.23349844
29	0xbef832d2	-0.48476273
30	0xbecd8730	-0.40142202
31	0xbd868013	-0.06567397
32	0x3c8f6622	0.017504755
33	0xbf0e88d2	-0.5567752
34	0xbec29897	-0.38007042
35	0xbf061048	-0.52368593
36	0xbe463ddb	-0.19359533
37	0xbf015e6b	-0.50534695
38	0xbf020a29	-0.50796753
39	0x3e0102c9	0.12598719
40	0xbe5cbcd4	-0.21556407
41	0x3d9d9469	0.076943226
42	0xbd37eb66	-0.044902228
43	0xbeb3c33b	-0.35109887
44	0xbebe5477	-0.37173817
45	0xbebfbf7d	-0.3745078
46	0xbe825063	-0.25451955
47	0xbed97516	-0.42472142
48	0xbe34c01d	-0.1765141
49	0xbe228d38	-0.15874183
50	0xbb698ff3	-0.003563878
51	0xbeabcc54	-0.33554327
52	0xbec10159	-0.3769634
53	0xbe3bf95d	-0.18356843
54	0x3bbd13f1	0.0057701995
55	0xbed39bf1	-0.4132991
56	0xbe3e17e8	-0.18563807
57	0xbeccd133	-0.40003356
58	0xbe06f736	-0.13180241
59	0xbeb06088	-0.34448647
60	0xbca39ba6	-0.01997168
61	0xbe05354b	-0.13008611
62	0xbec78142	-0.38965803
63	0xbe4baf21	-0.19891025
64	0x3bc84441	0.006111652
65	0x3e20918f	0.15680526
66	0xbe5e1fc9	-0.21691813
67	0xbe6be78f	-0.23037551
68	0xbed283ad	-0.41116086
69	0xbed411fc	-0.4141997
70	0xbecc6b1d	-0.3992547
71	0xbe9d51e9	-0.30726555
72	0xbe5d72f9	-0.2162589
73	0xbe2d52be	-0.16926095
74	0xbe856369	-0.26052406
75	0xbeb32e22	-0.34996134
76	0xbe060d88	-0.130911
77	0xbefe74de	-0.49698538
78	0xbed4ad53	-0.41538486
79	0x3e66eb8e	0.22550794
80	0xbe956205	-0.29176345
81	0xbee1d893	-0.44110546
82	0xbeaa16b4	-0.33220446
83	0xbef10d62	-0.47080523
84	0x3e8a17bb	0.2697123
85	0xbe86a89a	-0.26300508
86	0xbeb2ad00	-0.34897614
87	0xbf1bbcc1	-0.6083489
88	0xbeddce83	-0.43321618
89	0xbead13c1	-0.33804134
90	0xbe9c2d65	-0.30503383
91	0xbeeb50f8	-0.45960212
92	0xbeb0f7b4	-0.34563982
93	0xbe4b220c	-0.19837207
94	0x3e2f7833	0.17135696
95	0xbf50f66e	-0.8162602
96	0xbec48286	-0.3838083
97	0xbf37fa78	-0.7186656
98	0xbd2b1f6a	-0.041778006
99	0xbde9e1f6	-0.11420052
100	0x3dc9bbb1	0.098502524
101	0x3ccb5b85	0.024823913
102	0xbe818887	-0.25299475
103	0xbebee7cd	-0.37286225
104	0x3e8e41bf	0.27784535
105	0xbe9a726b	-0.3016542
106	0xbd7d5c65	-0.061855692
107	0xbeb86b2c	-0.36019266
108	0xbeb910ab	-0.3614553
109	0xbe014789	-0.12624945
110	0x3d640b9b	0.05567513
111	0xbeeb35a9	-0.45939377
112	0xbeb25671	-0.34831575
113	0xbf1a1b06	-0.60197484
114	0xbe364387	-0.17799197
115	0x3e53f5d4	0.20699245
116	0xbe7e2560	-0.24818945
117	0xbe7ece7a	-0.24883452
118	0x3de80603	0.11329272
119	0x3dca9c81	0.09893132
120	0xbe993f85	-0.29931274
121	0xbe9504e0	-0.29105282
122	0xbe0f54ec	-0.13997239
123	0xbefed871	-0.49774507
124	0xbecefe3c	-0.4042834
125	0x3e41fe44	0.18944651
126	0xbd10118f	-0.035172995
127	0xbe222aa3	-0.15836577
128	0xbd6ef370	-0.05833763
129	0xbdfeab53	-0.12435021
130	0xbf12a7bb	-0.57287186
131	0xbec043fc	-0.37551868
132	0xbef8c992	-0.48591286
133	0xbc32c109	-0.010910281
134	0xbe164d7f	-0.14678
135	0xbf0dfaec	-0.55461
136	0x3e385e67	0.18004762
137	0xbe2e4661	-0.17019035
138	0xbe64baef	-0.22336935
139	0xbddaba3d	-0.106800534
140	0xbe89d539	-0.26920488
141	0xbed47399	-0.41494444
142	0xbedb9d1d	-0.42893305
143	0xbe3497b5	-0.17635997
144	0x3e12f614	0.14351684
145	0x3df1dc6b	0.118096195
146	0x3e5ff7b3	0.21871834
147	0xbf0b1c09	-0.54339653
148	0xbd921395	-0.07132641
149	0xbecacf71	-0.3961139
150	0xbf0e72c0	-0.55643845
151	0xbe37ba0c	-0.17942065
152	0xbec94121	-0.39307502
153	0xbebe04e1	-0.37113097
154	0xbec5e204	-0.38649
155	0xbeb5a94f	-0.35480735
156	0x3ccfe5bb	0.025378099
157	0x3e116ecb	0.1420242
158	0xbeeaa82e	-0.45831436
159	0x3e2092e2	0.15681031
160	0xbe963fd6	-0.29345578
161	0x3de1628c	0.110051244
162	0xbe4dd199	-0.20099486
163	0xbe79a552	-0.24379471
164	0xbea3429c	-0.31886756
165	0xbe4526ec	-0.19253129
166	0xbd4287dc	-0.047492847
167	0xbe8ea9aa	-0.27863818
168	0xbe90b243	-0.28261003
169	0xbeeb4829	-0.4595349
170	0xbeb61c91	-0.3556867
171	0xbe4e7a05	-0.20163734
172	0xbe1e5b0d	-0.1546442
173	0xbed864e6	-0.4226448
174	0xbf274c2e	-0.65350616
175	0xbe965664	-0.29362786
176	0xbdc14bd6	-0.09438293
177	0xbe33c3db	-0.17555182
178	0x3c7d3a78	0.015455835
179	0xbf256f68	-0.6462312
180	0xbebd0734	-0.36919558
181	0xbe8d70ae	-0.2762503
182	0x3f152bab	0.5826976
183	0xbf0d5132	-0.5520202
184	0xbeadbaf5	-0.339317
185	0xbf0413ec	-0.515929
186	0xbe6a8bb7	-0.2290486
187	0xbeb7f40c	-0.3592838
188	0xbe640d70	-0.22270751
189	0xbf272316	-0.6528791
190	0xbe9c08a5	-0.30475345
191	0xbedd5bbd	-0.43234053
192	0xbe76d62f	-0.24105142
193	0xbe516ee6	-0.2045246
194	0xbd95bdf6	-0.07311623
195	0xbf2452b2	-0.64188683
196	0xbebf690e	-0.37384838
197	0xbe9f5111	-0.31116536
198	0xbf5b2256	-0.8559927
199	0xbde70fc5	-0.11282305
200	0x3bd67d15	0.0065456727
201	0x3dceb98c	0.10093984
202	0xbe74a99d	-0.23892827
203	0xbeedbd97	-0.46433708
204	0xbed44ed0	-0.4146638
205	0xbecf39c8	-0.4047377
206	0xbebc9af8	-0.36836982
207	0xbe1ce0fd	-0.15320201
208	0xbe08725d	-0.13324876
209	0xbe1599fe	-0.14609525
210	0x3e9fa633	0.31181487
211	0xbeb6cf44	-0.35705006
212	0xbf281c81	-0.65668494
213	0xbe3b4332	-0.18287352
214	0xbde3842c	-0.11109194
215	0xbe936dda	-0.28794748
216	0xbecb9e41	-0.39769176
217	0xbea2688f	-0.31720397
218	0xbc9ef3fe	-0.019403454
219	0xbed5beb5	-0.4174706
220	0xbe68a8b6	-0.22720608
221	0xbf4a8f78	-0.79125166
222	0xbe575490	-0.21028352
223	0xbe9cc4b3	-0.3061882
224	0x3da4cf50	0.08047354
225	0x3e9e55e6	0.3092491
226	0xbe541b63	-0.20713572
227	0xbf023a53	-0.50870246
228	0xbe5120d0	-0.20422673
229	0xbec313a0	-0.3810091
230	0x3e5b2479	0.21400632
231	0xbf50ef4d	-0.81615144
232	0xbe8003c8	-0.25002885
233	0xbe8bb458	-0.2728603
234	0xbedc7621	-0.43058875
235	0xbe138c67	-0.14409028
236	0xbec28dcb	-0.37998804
237	0xbd6c9a9d	-0.05776464
238	0xbed1c398	-0.4096954
239	0xbec038c9	-0.37543324
240	0x3e162f88	0.14666569
241	0xbe03c2b9	-0.1286725
242	0xbdcd482f	-0.100235336
243	0xbd927b02	-0.07152368
244	0x3da2003f	0.07910203
245	0xbed0f6e4	-0.40813363
246	0xbf0f29bb	-0.5592305
247	0xbe693682	-0.227747
248	0xbe3334b1	-0.17500569
249	0xbe8522b7	-0.26003048
250	0xbeb696ce	-0.3566193
251	0xbd9eb3fa	-0.077491716
252	0xbf0b1d0e	-0.5434121
253	0xbe88a311	-0.2668691
254	0xbe51c1fe	-0.20484158
255	0xbeb1a736	-0.34697884

layer_2.weight f4 [300, 400]
0	0x3c9ec2fe	0.019380089
1	0x3c87dfeb	0.016586265
2	0x3d6a9de5	0.057279486
3	0xbd01f5ac	-0.03172843
4	0xbb7783c6	-0.0037767752
5	0xbdbb0bb2	-0.0913309
6	0x3cab960f	0.020945577
7	0xbce97c17	-0.028501553
8	0x3ba11aa2	0.004916505
9	0xbc22931d	-0.00992277
10	0xbc4bb071	-0.012432204
11	0xbd789f18	-0.0606986
12	0xbd338a52	-0.043833084
13	0xbdc73876	-0.09727566
14	0xbc18eb91	-0.009333507
15	0xbddd2e27	-0.107998185
16	0xba430321	-0.0007439126
17	0x3cc5f0b3	0.024162626
18	0xbd8b6fb2	-0.068084136
19	0xbd980be6	-0.074241444
20	0xbd00ccf7	-0.03144547
21	0xba100864	-0.00054944144
22	0x3c8f8db9	0.017523633
23	0xbd059326	-0.032611035
24	0x3dbf70d4	0.09347692
25	0xbcea5972	-0.028607104
26	0xbc36bc79	-0.011153334
27	0xbcd0f012	-0.0255051
28	0xbda01886	-0.078171775
29	0xbd931b00	-0.07182884
30	0xbda2013d	-0.079103924
31	0xbb2f4698	-0.0026744958
32	0xbd4ab807	-0.04949191
33	0x3d03b1b7	0.032151904
34	0x3c8afa9c	0.016965203
35	0xbd47b554	-0.048756912
36	0xbdc22be2	-0.09481026
37	0x3c67a047	0.014137334
38	0xbd49bd7c	-0.049252972
39	0xbd7796cf	-0.060446557
40	0xbd1aaeba	-0.03776429
41	0xbcc22074	-0.023697115
42	0xbc4ef7e7	-0.012632347
43	0x3cf76380	0.030198812
44	0x3e131931	0.14365079
45	0x3d504d75	0.05085512
46	0xbd717d77	-0.058957543
47	0xbde6cbf6	-0.11269371
48	0xbd794c10	-0.060863554
49	0xbdb7929d	-0.08963511
50	0xbd798e7d	-0.060926903
51	0xbd3e3e8f	-0.04644638
52	0xbddc7adf	-0.10765623
53	0xbd4bf20e	-0.04979139
54	0x3bd7591e	0.006571903
55	0xbd65a9dd	-0.056070197
56	0x3d4b2b62	0.04960192
57	0xbbcc06d7	-0.0062264013
58	0x3d1ce5ac	0.03830497
59	0xbe0104ee	-0.12599537
60	0xbd4e9644	-0.050436273
61	0xbddaf5c8	-0.1069141
62	0xbd219306	-0.039446853
63	0xbe2a1aed	-0.16611834
64	0xbd16b129	-0.036790047
65	0xbba6bb13	-0.005088219
66	0x3d330b2c	0.043711826
67	0xbc11310a	-0.0088617895
68	0xbd0e473a	-0.034735896
69	0xbd3aaeda	-0.045576908
70	0xbc94d3e3	-0.018167442
71	0x3c71b831	0.014753387
72	0x3b8b50df	0.004251584
73	0xbd5bc851	-0.053657833
74	0x3a640bc4	0.0008699263
75	0xbda44da5	-0.08022622
76	0xbd90ff60	-0.07079959
77	0x3d715504	0.058918968
78	0xbdb90c21	-0.090355165
79	0xbdcff8c5	-0.10154871
80	0xbbaecfeb	-0.0053348443
81	0xbccb35ce	-0.02480593
82	0xbcf2df1c	-0.029647402
83	0xbdb37b52	-0.08763756
84	0xbd1a7889	-0.037712608
85	0xbd26a12e	-0.040681057
86	0xbc11ee14	-0.00890686
87	0x3cf52980	0.029927015
88	0xbd07b36b	-0.03313009
89	0xbcb368b3	-0.02190051
90	0xbc6bcb12	-0.014391677
91	0x3cc53c49	0.024076598
92	0x3d3d1084	0.04615833
93	0xbdc4ac46	-0.09603171
94	0xbc5b3814	-0.013380069
95	0xbcce450e	-0.025179412
96	0x3d15d85f	0.0365833
97	0xbc8a05f7	-0.016848547
98	0xbd41480a	-0.047187842
99	0xbc9ff2c1	-0.019524934
100	0xbddeb59a	-0.108744815
101	0xbd70792d	-0.058709312
102	0x3c57e7c0	0.013177812
103	0xbc4456a1	-0.011983545
104	0x3c344049	0.011001655
105	0xbc265646	-0.010152405
106	0xbd5a9465	-0.053364176
107	0x3cac66d3	0.021045124
108	0xbd627ebc	-0.055296645
109	0x3c69a2bc	0.01425999
110	0xbd0c7d9a	-0.03429947
111	0xbc6ab3e1	-0.014325113
112	0xbd39ce25	-0.04536261
113	0xbd3616b9	-0.044455264
114	0xbd4117ea	-0.047141947
115	0xbd811738	-0.06303257
116	0xbd3697d9	-0.044578407
117	0xbc928f8e	-0.017890718
118	0xbc284b4a	-0.010271857
119	0xbd417f2a	-0.047240414
120	0xbd9921d9	-0.07477159
121	0xba2d6816	-0.0006614936
122	0xbd97db9b	-0.07414933
123	0xbb9c7bef	-0.004775516
124	0x3ca6f0a2	0.020378415
125	0xbd5b6bd3	-0.053569626
126	0xbc9bd830	-0.019023985
127	0xbdbcb26a	-0.09213717
128	0xbcb82c9a	-0.022482205
129	0x3c00dee4	0.007865641
130	0xbd248a29	-0.040170822
131	0xbbefc479	-0.0073171225
132	0xbcb973d4	-0.022638239
133	0xbd804987	-0.06264024
134	0xbd1a24ef	-0.03763288
135	0xbd381b96	-0.044948183
136	0xb9ec8d08	-0.00045118504
137	0x3c66b736	0.014081767
138	0xbc9a9fce	-0.018875029
139	0xbcc75847	-0.024334086
140	0xbdd9d8b9	-0.1063704
141	0xbdd0660a	-0.101757124
142	0xbd68a255	-0.056795437
143	0xbd28393d	-0.04107021
144	0x3d3cb2a0	0.046068788
145	0xbd670aa7	-0.056406643
146	0xbd99b6b1	-0.07505549
147	0xbd882e79	-0.06649489
148	0x3a0152e6	0.00049333123
149	0xbd3cdafd	-0.04610728
150	0xbc99320c	-0.018700622
151	0xbce5d2ca	-0.028054614
152	0x3ccdccfa	0.025122155
153	0xbd812eef	-0.0630778
154	0xbcaf3726	-0.021388602
155	0xbca8f5f9	-0.020625101
156	0xbd8e21cc	-0.0694004
157	0x3c6cadfe	0.01444578
158	0xbcf5a895	-0.029987613
159	0xbdb82a7e	-0.0899248
160	0xbd58ca8a	-0.05292753
161	0xbdb8ea36	-0.09029047
162	0xbdcbe9f4	-0.099567324
163	0xbd299f0d	-0.04141145
164	0xbcb179d2	-0.021664534
165	0xbdbe37a1	-0.09287954
166	0xbdecf65a	-0.11570425
167	0xbdc64245	-0.09680609
168	0x3c6bda54	0.014395315
169	0x3cf3d499	0.02976446
170	0xbd3b86c8	-0.045782834
171	0xbd006345	-0.03134467
172	0xbca6e70a	-0.02037384
173	0xbdbc4d20	-0.09194398
174	0x3d1b7ffa	0.037963845
175	0xbd006002	-0.03134156
176	0x3d5c4a7d	0.053781975
177	0x3b09f06f	0.002104785
178	0xbde69233	-0.11258354
179	0xbd56efaf	-0.052474674
180	0xbca78709	-0.020450132
181	0xbc070261	-0.008240313
182	0xbd3754da	-0.044758655
183	0xbd6ad6ab	-0.05733363
184	0xbdd7b3f1	-0.10532368
185	0x3ca70ae1	0.02039093
186	0xbda725b2	-0.08161487
187	0xbdd1991a	-0.1023428
188	0xbdcdccb7	-0.10048812
189	0xbca8400c	-0.020538352
190	0x3d5a3b33	0.053279113
191	0x3cd7e41e	0.026353892
192	0xbc5e4d8a	-0.013568291
193	0xbcb640cd	-0.022247696
194	0x3bcc1a36	0.0062287105
195	0x3cd664fb	0.026171198
196	0xbd4734c2	-0.0486343
197	0x3d33f3c0	0.04393363
198	0xbbeeec07	-0.0072913202
199	0xbdfbed47	-0.123011164
200	0x3d2debcd	0.042461205
201	0x3d19a52c	0.037511036
202	0xbd75c1a1	-0.059999112
203	0xbd527b6a	-0.051387228
204	0xbc71e110	-0.014763132
205	0x3d5808e3	0.05274285
206	0xbda70c92	-0.081566945
207	0xbd3a5df4	-0.045499757
208	0xbd55d6ce	-0.052206807
209	0xbdbe7a97	-0.09300726
210	0x3ba8aa41	0.005147249
211	0x3b9090d2	0.004411795
212	0xbcddf337	-0.027093513
213	0xbd2e7651	-0.042593304
214	0xbde2273e	-0.11042641
215	0xbd911200	-0.07083511
216	0xbcf494df	-0.029856144
217	0xbcf8a554	-0.030352272
218	0xbd81cb0f	-0.063375585
219	0x3a140d01	0.00056476897
220	0x3c7d73cf	0.015469505
221	0xbd2999fb	-0.041406613
222	0xbd79cd8b	-0.060987037
223	0xbcc68b12	-0.024236236
224	0xbd8de0b1	-0.06927622
225	0xbc0c8b9a	-0.0085782055
226	0x3cfefd7f	0.031126736
227	0xbe03f013	-0.1288455
228	0xbd74b427	-0.05974212
229	0x3c9fc6ff	0.019504068
230	0xbdb1dfbf	-0.08685254
231	0xbd0202cc	-0.03174095
232	0xbd684487	-0.056705978
233	0xbd8ad4ba	-0.067788556
234	0xbc68cdbc	-0.014209207
235	0x398c8b99	0.0002680689
236	0xbd116506	-0.035496734
237	0xbd5e8d2d	-0.054333854
238	0xbc7a069a	-0.015260363
239	0xbde188c3	-0.11012413
240	0xba04bea5	-0.00050638086
241	0xbd4a7d49	-0.049435887
242	0x3bf5778b	0.0074910573
243	0x3d196c11	0.037456576
244	0xbd99a877	-0.07502835
245	0xbce737b7	-0.02822481
246	0xbc602ceb	-0.013682584
247	0xbdc8fe2f	-0.09814107
248	0x3db6ac9b	0.08919641
249	0xbccd6113	-0.025070703
250	0xbcd4d59b	-0.025980761
251	0xbd4f4d34	-0.050610736
252	0x3c835a59	0.016034292
253	0xbd0a4e15	-0.03376587
254	0xbdc92e62	-0.098233
255	0xbc843864	-0.01614017

layer_2.bias f4 [300]
0	0xbafa74ca	-0.0019108292
1	0xbe278a70	-0.16361403
2	0xbb62abfc	-0.0034587374
3	0xbd737be9	-0.05944434
4	0xbd6a2118	-0.057160467
5	0xbc89455a	-0.016756702
6	0xbd9a5cb5	-0.07537214
7	0xbe0f3e14	-0.13988525
8	0xbce13b7e	-0.027494188
9	0xbc55b41e	-0.013043432
10	0x3bef6d53	0.0073067336
11	0xbd19f380	-0.037585735
12	0xbd50b22c	-0.050951168
13	0xbce51288	-0.027962938
14	0xbc52b3b6	-0.012860229
15	0xbde58c56	-0.112084076
16	0xbdb89d5c	-0.09014389
17	0xbe28922c	-0.1646201
18	0xbd4f0708	-0.050543815
19	0xbd20b595	-0.03923567
20	0xbdce1235	-0.100620665
21	0xbe0dc2e1	-0.13843872
22	0xbd126394	-0.035739496
23	0xbb90a342	-0.004413993
24	0xbd1ad5f4	-0.037801698
25	0xbda15b1d	-0.078787066
26	0xbded6459	-0.115914054
27	0xbc635310	-0.013874784
28	0x3b248b21	0.0025107341
29	0xbce1858d	-0.027529502
30	0xbd296ad7	-0.041361656
31	0xbd98dcb6	-0.07463972
32	0xbde868e7	-0.113481335
33	0xbd39061c	-0.045171842
34	0xbda18b7e	-0.07887934
35	0x3b6555b1	0.0034993703
36	0xbdd0fc2f	-0.1020435
37	0xbd44aecc	-0.04801826
38	0xbc699425	-0.014256512
39	0xbd4fe632	-0.05075664
40	0xbd5afb66	-0.05346241
41	0xbdd8b7c6	-0.10581927
42	0xbcdd56ad	-0.02701887
43	0xbcf35856	-0.029705208
44	0xbc98edc8	-0.01866807
45	0xbd72acef	-0.059246954
46	0xbd3a8813	-0.045539927
47	0xba9916cb	-0.0011679766
48	0xbd903cfc	-0.07042882
49	0xbc9075ea	-0.01763435
50	0xbd3f1ce3	-0.046658408
51	0xbdf31b02	-0.11870386
52	0xbe8f2531	-0.27958062
53	0xbd0a4b91	-0.033763472
54	0xbb624c82	-0.0034530465
55	0xbd8d0a30	-0.06886709
56	0xbdd23cf1	-0.1026553
57	0xbd01d0f8	-0.03169343
58	0xbcd774f4	-0.026300885
59	0xbbeae0d5	-0.0071679153
60	0x3b8de99a	0.004330826
61	0xbd33c25b	-0.043886524
62	0xbdca9d52	-0.09893288
63	0x3e13eb8d	0.14445324
64	0xbd8cd631	-0.06876791
65	0xbf1fea46	-0.6246685
66	0x3d05951d	0.03261291
67	0xbbb24a4a	-0.005440985
68	0xbd254e2e	-0.04035776
69	0xbd3febb0	-0.04685563
70	0xbd2d8a57	-0.04236826
71	0xbd13ac26	-0.036052845
72	0xbd803c53	-0.06261506
73	0xbd1ea628	-0.038732678
74	0xbc8742ee	-0.016511407
75	0xbe3a922b	-0.18219821
76	0xbd2d667d	-0.04233407
77	0xbd395232	-0.045244403
78	0x3c115c39	0.008872085
79	0x3c1b0c3f	0.009463369
80	0xbd4cb332	-0.04997558
81	0xbb7b5af0	-0.0038353764
82	0xbde4c35f	-0.111700766
83	0xbea35c27	-0.31906244
84	0xbd5f94a9	-0.054585133
85	0xbd9948df	-0.07484602
86	0xbc940290	-0.018067628
87	0xbd9d3f33	-0.0767807
88	0xbdab7d4e	-0.08373509
89	0xbd41d2d5	-0.047320206
90	0xbb94408d	-0.0045242966
91	0xbd6e4e33	-0.058180045
92	0xbd8e521f	-0.06949257
93	0xbd1f7383	-0.03892852
94	0xbdb68b9f	-0.08913349
95	0xbe8aef98	-0.2713592
96	0xbd38234e	-0.044955544
97	0x3d209f96	0.039214693
98	0xbde5d1ff	-0.11221694
99	0x3ec42121	0.38306525
100	0xbccb6918	-0.024830386
101	0xbcf44d86	-0.029822122
102	0xbc99a057	-0.018753214
103	0x3c7f0315	0.0155647
104	0xbcb695bf	-0.022288201
105	0xbdbcf0ca	-0.09225614
106	0xbcc3bea7	-0.023894621
107	0xbd009e57	-0.031401005
108	0xbd2f16ff	-0.04274654
109	0xbc6db875	-0.01450931
110	0x3bd1c8bc	0.006402103
111	0x3e504bc4	0.20341402
112	0xbd7d80b1	-0.061890308
113	0xbd817dfd	-0.063228585
114	0xbde86333	-0.11347046
115	0xbcc7c119	-0.024384068
116	0xbc5dfb0a	-0.013548622
117	0xbc010550	-0.007874802
118	0xbd92d233	-0.071689986
119	0xbd9f1a25	-0.077686585
120	0xbd8369fa	-0.06416698
121	0xbdca72b5	-0.0988516
122	0xbdd47fae	-0.103759155
123	0xbdc61b26	-0.09673147
124	0xbeb5e478	-0.3552587
125	0xbdb34f1e	-0.08755325
126	0xbd8525fc	-0.065013856
127	0xbeb2d7dc	-0.34930313
128	0x3da4e769	0.080519505
129	0xbdd4149d	-0.10355494
130	0xbf2055b7	-0.6263079
131	0xbcd58767	-0.026065541
132	0xbd64c78f	-0.055854376
133	0xbd7f9bcd	-0.062404443
134	0xbe13232a	-0.14368883
135	0xbcfba55b	-0.030718496
136	0xbe02fd6d	-0.12791987
137	0xbd6d3167	-0.057908442
138	0xbc947612	-0.018122707
139	0xbdbb8509	-0.09156234
140	0x3ea3031d	0.31838313
141	0xbdc2bb38	-0.095083654
142	0xbd47f82f	-0.04882067
143	0xbcbbe1b0	-0.022934765
144	0xbd8456d0	-0.06461871
145	0x3a30cde7	0.0006744549
146	0xbcce64d5	-0.025194565
147	0xbda882f9	-0.08228106
148	0xbe14a2dd	-0.14515252
149	0xbd8dc0c1	-0.069215305
150	0x3e0e1ef9	0.13879003
151	0xbd110554	-0.035405472
152	0xbd1df021	-0.038559083
153	0xbd97cdb9	-0.07412285
154	0xbd85d823	-0.065353654
155	0xbd7bd2b1	-0.061480228
156	0xbd4ce8ff	-0.05002689
157	0x3c053bd2	0.008131938
158	0xbd649a10	-0.055810988
159	0xbc6d8b7a	-0.014498586
160	0xbcb69b51	-0.022290858
161	0x3c1dcda0	0.009631544
162	0xbdad2827	-0.08454924
163	0xbd8ce7d8	-0.06880158
164	0xbd40c6c5	-0.04706456
165	0xbda1c10c	-0.07898149
166	0xbd6acaad	-0.057322193
167	0xbd7ef369	-0.062243853
168	0xbd567ba3	-0.052364003
169	0xbcf5966b	-0.029978951
170	0xbcdc5892	-0.026897702
171	0xbd8a4fb0	-0.067534804
172	0xbd8cc93f	-0.06874322
173	0x3ccdfc6a	0.025144774
174	0xbd43876e	-0.047736578
175	0xbad0b6c1	-0.0015923606
176	0x3e25a730	0.16177058
177	0xbd0815a5	-0.033223767
178	0xbd32112c	-0.043473408
179	0x3bcfc227	0.0063402834
180	0xbd77818f	-0.06042629
181	0xbd84d0cf	-0.064851396
182	0xbe1d31a7	-0.15350972
183	0xbda705c0	-0.081553936
184	0xbc2d6110	-0.010582224
185	0xbd348050	-0.04406768
186	0x3e86eb60	0.26351452
187	0xbc0a4bbb	-0.008440907
188	0xbb7c9ea2	-0.00385467
189	0xbe05a90f	-0.13052772
190	0xbd6f7fbd	-0.05847143
191	0xbd94232c	-0.07233271
192	0xbd95a02c	-0.07305941
193	0xbd8aee6e	-0.06783758
194	0xbd2b90e1	-0.041886214
195	0xbe36b2ee	-0.17841694
196	0xbd77661b	-0.06040011
197	0xbd376ea8	-0.044783264
198	0xbdb40243	-0.08789494
199	0xbdbd0012	-0.09228529
200	0xbd6f3799	-0.05840263
201	0xbd76834e	-0.060183816
202	0xbd6ee5a0	-0.058324456
203	0xbbddf393	-0.006773421
204	0xbd35578f	-0.044272956
205	0xbda4b4ab	-0.08042272
206	0xbe89bf0b	-0.26903567
207	0xbd01e924	-0.03171648
208	0xbd9bf07e	-0.076142296
209	0xbd056121	-0.032563332
210	0xbdb42e54	-0.08797899
211	0x3e519735	0.20467837
212	0xbd4fde51	-0.050749127
213	0xbdaaa829	-0.08332855
214	0xbdb09e22	-0.086239114
215	0x3c34d1a8	0.011036314
216	0xbd657baa	-0.05602614
217	0xbdbfa4de	-0.09357618
218	0x3cbcb0c7	0.023033513
219	0xbbaa5e26	-0.0051992116
220	0xbdd7bfbd	-0.10534618
221	0xbd34b616	-0.044118963
222	0xbbf42ed8	-0.0074518733
223	0xbe37bdcf	-0.179435
224	0xbdab1dfd	-0.08355329
225	0xbd1976f2	-0.03746695
226	0xbd829c92	-0.0637752
227	0x3cd9d813	0.02659229
228	0x3eb79bc1	0.35861018
229	0xbcbe9e1e	-0.023268756
230	0xbe057791	-0.13033892
231	0xbdeb22a0	-0.114812136
232	0xbd674f50	-0.056472123
233	0xbd441a44	-0.04787661
234	0xbd6ffccf	-0.058590706
235	0xbcfeb696	-0.031092923
236	0xbd74f553	-0.059804272
237	0x3b8ce751	0.004300036
238	0xbcf344ed	-0.029695952
239	0xbccac645	-0.024752745
240	0xbbf2906c	-0.0074024703
241	0xbd0bfdbb	-0.034177523
242	0xbd8453f0	-0.06461322
243	0x3adda52b	0.0016910186
244	0xbd827497	-0.06369894
245	0xbda6c877	-0.081437044
246	0xbd3cc382	-0.04608489
247	0xbdabebeb	-0.08394607
248	0x3d9c95fb	0.07645794
249	0xbd8c7082	-0.06857397
250	0xbd170045	-0.03686549
251	0xb9c11527	-0.00036827588
252	0xbdcba70f	-0.09943973
253	0x3df1a1b1	0.11798418
254	0xbeb42648	-0.35185456
255	0xbd785790	-0.06063038

layer_3.weight f4 [1, 300]
0	0xba04c283	-0.0005064385
1	0xbe5309c3	-0.20609193
2	0x3d3d9cfc	0.04629229
3	0xbd8e492f	-0.069475524
4	0x3b3d0bd6	0.0028846166
5	0xbd505af2	-0.050867982
6	0xbe13e783	-0.14443783
7	0xbf5f76f3	-0.8729088
8	0xbc35e759	-0.011102521
9	0x39d62ade	0.000408492
10	0x3bb24467	0.005440283
11	0xbcf8b649	-0.030360358
12	0x3bd0272b	0.0063523254
13	0x3b292428	0.0025808904
14	0xbe53266f	-0.2062013
15	0xbe04eac8	-0.12980187
16	0x3b555e9d	0.0032557615
17	0xbe07f073	-0.13275318
18	0xbc4b5520	-0.012410432
19	0x3de7765d	0.11301873
20	0xbc064381	-0.008194805
21	0x3ab8f0de	0.001410987
22	0xbbbfa726	-0.005848783
23	0xbcca93bf	-0.024728654
24	0xbc99c96d	-0.018772805
25	0xbc51c9f9	-0.012804502
26	0xbc1e199d	-0.009649661
27	0x3c2e9b6b	0.010657172
28	0x3eb95558	0.36197925
29	0x3c905c25	0.017622063
30	0xbc803ebe	-0.015654918
31	0xbc2d5494	-0.010579247
32	0xbe24c241	-0.16089727
33	0xbcdcd762	-0.026958171
34	0xbccd28a0	-0.025043786
35	0x3ce2f7e0	0.027706087
36	0x3d02e35c	0.031955108
37	0x3c423ef0	0.011855826
38	0xbca41177	-0.02002786
39	0x3cd93d6c	0.026518546
40	0x3b202a8c	0.0024439422
41	0x3bbb16f9	0.0057095257
42	0x3c1ea700	0.009683371
43	0x3d252e71	0.040327493
44	0xbcf00299	-0.029298114
45	0x3c87b5cb	0.016566178
46	0xbd5b5f07	-0.053557422
47	0x3c0edb0b	0.008719216
48	0x3cb1f079	0.021721112
49	0x3dc1c75d	0.09461854
50	0x3d2369b7	0.03989574
51	0xbe160403	-0.14649968
52	0x4009d435	2.153577
53	0xbd72c489	-0.05926946
54	0x3dd77ab5	0.105214514
55	0xbd32cb57	-0.04365095
56	0xbdbcd633	-0.09220543
57	0xbc97a425	-0.018510887
58	0x3ce83e0d	0.0283499
59	0x3c00edb5	0.007869174
60	0x3c43375a	0.011915052
61	0x3bbc71d7	0.0057508755
62	0x3b81e3bb	0.003963915
63	0x3fbc6d6f	1.4720896
64	0xbcb58cc9	-0.022161858
65	0xbd9fdc3d	-0.07805679
66	0xbdd6f4f5	-0.104959406
67	0x3c02d426	0.00798515
68	0xbc13b5c8	-0.009015508
69	0x3c8f89aa	0.017521698
70	0xbced2568	-0.0289485
71	0x3c379183	0.011204126
72	0xbcda5fd5	-0.026657024
73	0x3c3aadd3	0.011393982
74	0xbbee6f91	-0.0072764833
75	0xbd42f101	-0.04759312
76	0xbcec3acd	-0.028836632
77	0x3c68462b	0.014176886
78	0xbd0b57e1	-0.034019355
79	0x3c077909	0.008268603
80	0xbe0cf7b2	-0.13766363
81	0x3c570b21	0.013125212
82	0xbda2df1b	-0.0795271
83	0x4007bdb9	2.1209548
84	0x3c329c69	0.010901549
85	0xbd947371	-0.07248581
86	0x3a287bd1	0.00064271415
87	0xbce096ec	-0.027415715
88	0x3c22b721	0.009931357
89	0xbd52ab30	-0.05143279
90	0xbc297024	-0.010341678
91	0xbd7ff8de	-0.062493198
92	0x3d538141	0.051636938
93	0xbb0b9c54	-0.0021302896
94	0xbd05c45b	-0.032657962
95	0xbd82f821	-0.06394983
96	0x3eeb641b	0.45974812
97	0x3efbbe1b	0.49168476
98	0x3b50668a	0.00317994
99	0xbe842d30	-0.25815725
100	0xbb8c5731	-0.004282855
101	0x3ca3837f	0.019960163
102	0xbc652e25	-0.0139880525
103	0x39ab6989	0.0003269429
104	0x3dd6f5aa	0.104960755
105	0xbc84995d	-0.01618641
106	0x3d93a60f	0.072094075
107	0x3ce46bd6	0.027883451
108	0xbb8982cc	-0.0041965004
109	0xbc729ce5	-0.014807914
110	0x3d3c200a	0.045928992
111	0xbfe8d141	-1.8188859
112	0xbcb2c320	-0.021821558
113	0x3c409393	0.011753934
114	0xbdf54684	-0.119763404
115	0xba73fd25	-0.0009307436
116	0xbdbd98e0	-0.09257674
117	0x3b62c609	0.0034602901
118	0x3c5d4aeb	0.013506631
119	0xbe43d771	-0.19125153
120	0xbc76b8b5	-0.015058686
121	0x3c8575a5	0.016291449
122	0x3d149031	0.036270324
123	0xbc580384	-0.013184432
124	0x3f219765	0.63121635
125	0x3df19bdf	0.11797308
126	0x39bc0f1d	0.00035869415
127	0xbea73ccc	-0.32663572
128	0x3fe5a921	1.7942239
129	0xbac7daed	-0.001524774
130	0xb967acb1	-0.00022094209
131	0xbca7e04e	-0.020492699
132	0xbd2dd29e	-0.04243719
133	0x3dea38fe	0.11436652
134	0xbdf59f6f	-0.119933
135	0x3c676e7d	0.014125464
136	0xbe93c0c4	-0.28858006
137	0x3f57b856	0.8426565
138	0xbd20eeb6	-0.039290152
139	0x3cb8ce54	0.022559322
140	0x40b37bff	5.6088862
141	0xbd5a3f33	-0.053282928
142	0xbc1898c4	-0.009313766
143	0x3cd8c4e7	0.026461078
144	0x3ca8a956	0.020588558
145	0xbcef4d80	-0.02921176
146	0xbe8c5681	-0.27409747
147	0xbbd15bb3	-0.006389105
148	0xbd58ace7	-0.052899268
149	0x3d07b4a0	0.03313124
150	0x3e36b583	0.17842679
151	0xbc8cae8b	-0.017173072
152	0xbd3c0b86	-0.045909427
153	0xbbe0e545	-0.0068632686
154	0xbd00232f	-0.031283554
155	0x3d3538df	0.04424369
156	0x3cf81281	0.03028226
157	0xbc826f21	-0.015922131
158	0x3c29a76f	0.010354861
159	0x3af72a85	0.0018857276
160	0x3ba8891b	0.0051432974
161	0x3b449ed0	0.0030001886
162	0x3bb4fb4a	0.00552312
163	0xba6532df	-0.0008743237
164	0xb9213779	-0.00015374822
165	0xbc328205	-0.010895257
166	0xbc3d134f	-0.011540248
167	0x3c702c81	0.014659048
168	0xbd45ea1d	-0.04831897
169	0xbca936a3	-0.020655936
170	0x3b5605f9	0.0032657369
171	0x3c0680d6	0.008209428
172	0xbcb0bc14	-0.021574058
173	0xbca5579d	-0.020183379
174	0x3cd8d170	0.026467055
175	0x3b31782e	0.002707969
176	0xbe96af48	-0.29430604
177	0x3c9054cf	0.017618565
178	0xbca017da	-0.019542623
179	0x3bc18a54	0.0059063826
180	0x3c8b2c9c	0.016989045
181	0xbcf4c01c	-0.029876761
182	0xbdfeea15	-0.12446991
183	0xbbe88f3a	-0.007097152
184	0xbc24c4a4	-0.010056648
185	0xbb207a4d	-0.002448696
186	0xbf828855	-1.0197855
187	0xbc173a39	-0.00923019
188	0x3b74ee5b	0.0037373516
189	0xbe133097	-0.14374004
190	0x3afa91cc	0.0019116937
191	0xbe921655	-0.28532663
192	0xbd651b1e	-0.055934064
193	0xbc9738c2	-0.018459681
194	0xbc084bc3	-0.008318844
195	0x3dbad795	0.0912315
196	0x3e442e52	0.19158295
197	0x3df60f94	0.1201469
198	0xbc414211	-0.011795537
199	0xbcf9dc14	-0.03050045
200	0xbccd029f	-0.025025664
201	0xbd7dd224	-0.061967984
202	0x3cc4273d	0.023944492
203	0xbce5282d	-0.027973259
204	0xbd5f2811	-0.05448157
205	0x3d2685f4	0.04065509
206	0x3c0250b0	0.007953808
207	0xbbe5309d	-0.0069943205
208	0xbbeb1937	-0.0071746367
209	0x3c86cb88	0.016454473
210	0xbd0993cd	-0.03358822
211	0xbf972687	-1.1808633
212	0xb9d6f090	-0.00040996494
213	0x3cda99de	0.026684698
214	0x3c28eec8	0.010310836
215	0x3d1fd876	0.039024793
216	0xbc3dd919	-0.011587405
217	0x3cd03ee0	0.025420606
218	0x3ebeed57	0.3729045
219	0xbd23b630	-0.03996867
220	0xbd60808e	-0.0548101
221	0x3ba5b6dd	0.0050571994
222	0xbd0b438e	-0.033999972
223	0xbc8c86a6	-0.01715405
224	0x3b5ba861	0.003351711
225	0xbd008320	-0.03137505
226	0x3d165f08	0.036711723
227	0xbf812774	-1.0090165
228	0xbea1326f	-0.3148379
229	0x3c470cf9	0.012149089
230	0xbd9a5b19	-0.07536907
231	0x398a2c9b	0.00026354645
232	0xbc0cfe56	-0.00860556
233	0xbd6ca9ad	-0.057779003
234	0x3b3fb50d	0.0029252202
235	0x3b001bbc	0.001954778
236	0xbb6d211c	-0.0036183065
237	0x3d2c8f2d	0.04212873
238	0x3caa6976	0.02080224
239	0xbc4700b5	-0.012146165
240	0xbbb77b2b	-0.0055993996
241	0x3f1ec7f1	0.62023836
242	0xbd415d22	-0.04720796
243	0xbc551071	-0.013004408
244	0xbc6a71de	-0.014309375
245	0x3c28ccf4	0.010302771
246	0xbd410a47	-0.047128942
247	0x3cdc69c5	0.026905904
248	0xbe9ade31	-0.30247644
249	0x3b50e14d	0.003187257
250	0xbcadc4b8	-0.021211967
251	0xbd0fa7db	-0.03507219
252	0xbd1d376f	-0.038382944
253	0x3e8129c9	0.25227192
254	0xbef602cf	-0.48049018
255	0xbba592e7	-0.0050529125
