p2a10/T3D_car_1_actor.pth (torch_old, 505873 bytes, 5 tensors)

layer_1.weight f4 [400, 13]
000000 32 7b 99 3e c5 00 1a 3f b0 a6 c0 bd 46 10 f6 3d
       0.29976803 0.60157424 -0.09406793 0.12014823
000010 2e 0b a5 3e 62 40 07 3c 67 b0 96 3e 15 86 00 bf
       0.32235092 0.008255096 0.2943146 -0.5020459
000020 6a 5d ba bd 07 54 c0 3d d5 82 63 3d 07 d7 47 be
       -0.090998486 0.09391027 0.055544693 -0.1951562
000030 7a 8d d9 be 00 04 65 bf 3e c1 af be f8 35 26 3e
       -0.4249075 -0.8945923 -0.3432712 0.16231525
000040 38 ea e9 3d e3 0c a5 be 63 e3 ab 3e aa f1 fb 3e
       0.11421627 -0.32236394 0.3357192 0.49207813
000050 ce 68 f9 be 98 b5 36 be b2 43 45 3e 28 e9 cc be
       -0.48712772 -0.1784271 0.19264105 -0.40021634
000060 62 5c 08 3f a2 dd 46 be b3 40 0b bf 58 82 46 be
       0.53265965 -0.19420484 -0.543956 -0.1938566
000070 f6 ae ea 3e fe dc 8b bd 83 a6 8f be f6 f0 1b be
       0.4583661 -0.0682926 -0.28056726 -0.15228638
000080 0f 68 d6 3e af ea 09 be be 32 41 3e ef 29 d4 3e
       0.41876265 -0.13468431 0.18867013 0.41438243
000090 13 45 d2 3e c9 1c 8c be f8 c2 43 bf 4f 56 e1 3c
       0.41068324 -0.2736571 -0.76469374 0.027506975
0000a0 43 03 36 3e 04 92 3e 3e 3c ef 03 bf 7d 18 6f bf
       0.17774682 0.18610388 -0.5153692 -0.9339674
0000b0 5a 38 21 be b3 44 f4 3e 47 2e 83 be 64 73 ae 3e
       -0.15744153 0.47708663 -0.25621244 0.3407241
0000c0 d9 ab 4c 3f e6 34 6c be 38 3c 5b be be 24 ce 3c
       0.7994972 -0.23067054 -0.2140969 0.025164004
0000d0 6d 9a a9 3c 56 b4 bc 3e 00 be a3 3c 43 d1 cc be
       0.020703519 0.36856335 0.01998806 -0.40003404
0000e0 1b ca 8b be 16 7c d3 3d 29 9d 1e 3f 61 9f 03 bf
       -0.27302632 0.10326402 0.6195856 -0.5141507
0000f0 39 7c 11 be 4b c8 c2 3f 5b de 93 3e 4d e7 bd be
       -0.14207543 1.5217375 0.2888058 -0.3709053
000100 db 44 f4 be d9 96 3a 3e dd 94 26 be 3e 86 e5 be
       -0.47708783 0.18221606 -0.16267724 -0.4482898
000110 3d db 66 bf 2c b3 9f bf 97 c2 39 3e 71 e2 c7 3e
       -0.9017828 -1.2476554 0.18140636 0.3903995
000120 1b 43 be be eb b9 3f be b3 bf 6b 3f 88 94 39 3e
       -0.37160572 -0.18723266 0.92089385 0.18123066
000130 5a e1 04 bf b4 31 97 3e ec 9f 4d bd ff a8 39 be
       -0.5190636 0.29530108 -0.05020134 -0.18130873
000140 86 06 13 3f 32 b1 81 3e e7 b6 33 be 28 63 11 3f
       0.5743183 0.25330502 -0.1755024 0.56791925
000150 d5 2c 4e 3c 5e 69 41 3e a4 56 2b bf 33 63 f0 be
       0.012583931 0.1888785 -0.6692908 -0.46950683
000160 c4 e1 f0 be b9 71 3d 3f 5e 6f 92 be d4 c9 e3 3e
       -0.47047246 0.7400165 -0.2860059 0.4448992
000170 28 27 1d be 60 1d f2 bd 29 95 2f bf 49 e4 35 be
       -0.15346968 -0.11822009 -0.68586975 -0.17762865
000180 49 6c 80 be 87 e7 ee 3e ef 2f 9f be 4c 0d 12 bd
       -0.25082615 0.46661016 -0.31091258 -0.035657212
000190 a6 54 54 3f 5a 12 b1 3e e9 2e f4 be 80 ab af be
       0.82941663 0.34584314 -0.4769204 -0.34310532
0001a0 00 06 0c 3f 22 ca ea bc b3 82 ea bd 8b 66 cf be
       0.54696655 -0.028660838 -0.1145071 -0.40507922
0001b0 0a 15 1d bf ed 9f 06 3d 9d 31 41 3e 08 19 61 bf
       -0.6136023 0.03286736 0.18866582 -0.8792882
0001c0 d2 51 d0 3e a7 ab 39 3f 13 ad 88 be e2 cf e5 3d
       0.40687424 0.72527546 -0.26694545 0.11221291
0001d0 87 01 36 3e 3a 75 ff be 6d 88 31 be 41 9a ab 3e
       0.1777402 -0.49894124 -0.17337199 0.33516124
0001e0 d4 4b 19 3f ee 56 13 3e a1 c4 84 3e 32 a1 6f 3e
       0.5988133 0.1438863 0.25931266 0.23401335
0001f0 76 0b 9b 3e 62 26 49 3f b3 fd 27 3e 41 27 89 3e
       0.30282182 0.7857419 0.16405372 0.2678776
000200 30 32 f0 3c a3 35 90 be ce 73 82 3e 3b b6 e0 be
       0.029320806 -0.28165922 0.25478977 -0.4388903
000210 62 99 3a 3f 6b 57 64 bd 09 b4 0e 3e f3 4f 59 3e
       0.72890294 -0.05574743 0.13935865 0.21221904
000220 bc a5 06 3e 13 4d 5e bf c3 7f 20 bf b9 19 41 bf
       0.1314916 -0.86836356 -0.6269495 -0.75429875
000230 f0 b2 ac be b5 96 06 3f 44 7a 8d bd 91 d0 2b 3f
       -0.33730268 0.5257371 -0.06908086 0.6711512
000240 43 63 f8 3c 55 53 f7 bd 71 61 e4 be c5 be 86 3d
       0.03032077 -0.12076441 -0.44605592 0.06579355
000250 28 b1 86 3f 93 58 1e bf 68 84 7c 3d 31 3f 26 bf
       1.0522814 -0.61853904 0.06164971 -0.6494017
000260 7f b1 ef 3c 4a ca 05 bf 3f 67 cd 3e 7d d8 b3 be
       0.029259441 -0.52261794 0.40117833 -0.35126105
000270 27 eb 2d be 62 0e 0b 3f 3b 12 36 bd c2 da 08 3f
       -0.16984235 0.5431882 -0.04445098 0.534588
000280 b1 74 47 3f 75 5a ca 3e 2e b4 59 3d 36 d8 17 3e
       0.7791243 0.39522138 0.05315035 0.14828572
000290 92 3f 4e be d7 1d f0 be e5 16 75 3f 90 36 20 bf
       -0.20141438 -0.46897766 0.9573806 -0.62583256
0002a0 99 bc e0 bd 00 09 05 3f a5 77 a0 ba d5 ce 2f 3f
       -0.10973472 0.5196686 -0.0012242688 0.68674976
0002b0 99 a2 16 bf 63 a8 c0 be ec 62 0d 3c 5a 00 74 3e
       -0.58841854 -0.3762847 0.008629542 0.23828259
0002c0 15 b8 f9 be f1 d3 96 3d 3f a1 10 3f 4f de 27 3f
       -0.48773256 0.07364643 0.5649604 0.6557359
0002d0 90 a2 18 bf 23 d1 4c 3c 2e 0f a0 3e 71 03 0e 3f
       -0.5962305 0.012501034 0.3126158 0.55474
0002e0 70 f7 f3 be 66 77 91 be 29 50 2b bf dd 22 96 3e
       -0.47649717 -0.28411406 -0.6691919 0.29323474
0002f0 6e 2a 13 3b 88 8a 05 3e 60 63 25 bf 67 f4 83 be
       0.002245571 0.13041127 -0.6460476 -0.25772402
000300 93 63 aa 3d 04 a1 b6 be b2 03 be bd 91 3f b0 3e
       0.083197735 -0.3566972 -0.092780486 0.34423497
000310 d8 fa 03 3d c9 c6 e7 bd e3 d5 30 bf 71 fc 08 be
       0.032221645 -0.11317212 -0.69076365 -0.13377549
000320 0c 65 f8 be a0 dc a9 3e 95 c9 85 bd de 28 a4 3d
       -0.48514593 0.33176136 -0.06532589 0.08015607
000330 cd 8b 5c 3f c5 8d de 3e 24 95 05 bf 6a 43 e7 be
       0.8615082 0.43467537 -0.52180696 -0.4516862
000340 11 5a c1 bc 89 82 1e 3f 6f 14 a0 be 2c c0 1d bf
       -0.023602517 0.6191793 -0.3126559 -0.61621356
000350 7a b1 68 be 89 bf 99 3c c2 6d 8b 3e 4e b8 a4 be
       -0.22723952 0.018768089 0.27232176 -0.32171863
000360 88 0d 27 3e 19 b0 60 3f a6 33 00 3f f3 bd 54 be
       0.16313756 0.87768704 0.5007881 -0.20775585
000370 9d 36 06 be ee d0 4f be 00 62 36 3e 3c c3 01 3f
       -0.13106771 -0.20294544 0.17810822 0.5068853
000380 4d f8 b0 3e 24 9c 5e be fc bd 46 3f 23 2b 4b be
       0.34564438 -0.2173925 0.77633643 -0.19840674
000390 0f 01 35 bd 6a 48 5d bf 97 ba 3b 3e 05 47 17 3f
       -0.044190463 -0.8643862 0.18332897 0.5909274
0003a0 73 83 32 bf 16 7d 11 bb 4b 85 82 bd c4 fc b5 3c
       -0.69731826 -0.0022199801 -0.0637308 0.022215255
0003b0 ca a1 f8 be 4a 9a 0b bf 21 dc 04 bd 9e 33 07 3f
       -0.48560935 -0.545323 -0.032436494 0.52813137
0003c0 02 07 13 3e b8 37 28 bf 9a 90 16 3f 3c 36 49 3d
       0.14358142 -0.6571002 0.58814394 0.049123988
0003d0 0a fe 80 be 63 ad 10 3f 65 a1 30 be 03 6d 1a 3e
       -0.25193816 0.5651457 -0.17249067 0.15080647
0003e0 cc ba 8b bd bb 3d c7 be 83 a6 28 bf 35 29 1e bf
       -0.06822738 -0.38914284 -0.65879077 -0.61781627
0003f0 bf 31 a2 3c 71 76 f7 bd 7d 60 61 be 5a a5 58 3d
       0.019799111 -0.12083138 -0.22009464 0.052892067

layer_1.bias f4 [400]
000000 f4 bf 8c be 59 9a 2f be 88 67 bd be 79 09 dc 3d
       -0.274902 -0.17148723 -0.3699305 0.10743994
000010 14 bf 1c be 14 59 3c bd a5 62 dc be 82 4a c7 3d
       -0.15307266 -0.04598339 -0.4304401 0.09731008
000020 0c e5 01 3e 19 ee 85 3c 99 80 4e be 24 45 2e 3b
       0.1268503 0.016348885 -0.20166244 0.0026591504
000030 11 70 a3 be fc 6c 78 be f8 af 8e 3c 89 cf 69 bc
       -0.31921437 -0.24260324 0.017417893 -0.014270672
000040 b3 a4 84 be 3a fa 97 be e3 b7 ce bd bb 8c 32 be
       -0.25906906 -0.29683095 -0.10093667 -0.17436497
000050 8e e9 53 be 94 8b a9 be d2 af 38 be 7d 50 dc bc
       -0.20694563 -0.33114302 -0.1803582 -0.026893849
000060 7a bc 3f be f9 5d 17 bf 95 1c 40 be 71 b2 7c be
       -0.18724242 -0.59127766 -0.18760903 -0.24677445
000070 5b 9c bc be 0c 58 0e bf 74 44 d8 be e4 96 99 be
       -0.3683804 -0.556031 -0.42239726 -0.29997933
000080 b1 97 a7 3d d2 88 0e bf 2d 6a 6f be 6f 2f 00 bf
       0.0818323 -0.5567752 -0.23380347 -0.5007238
000090 a1 73 91 be 72 54 05 bf b0 04 ad be de 45 72 bd
       -0.2840853 -0.5208198 -0.3379264 -0.05914866
0000a0 9d 71 35 be 62 e7 17 3e cd 74 15 be f2 d1 7a be
       -0.17719121 0.1483436 -0.14595337 -0.2449415
0000b0 e9 74 53 be 7d bf bf be 75 84 a8 be ca df a5 be
       -0.20650066 -0.3745078 -0.32913557 -0.323973
0000c0 38 d9 0e be 22 84 c9 bd 95 42 ca bd 54 cc ab be
       -0.1395005 -0.098396555 -0.09875981 -0.33554327
0000d0 58 53 9b be 32 5b 0d be d7 50 09 bc 7a bd fa be
       -0.30337024 -0.1380432 -0.00838109 -0.48972684
0000e0 e8 17 3e be bf 1f 0a bf 39 88 fd bd 20 b3 8f be
       -0.18563807 -0.5395469 -0.12379498 -0.2806635
0000f0 96 a5 61 bd 1b e0 2b be b7 9e 93 be 44 75 5c be
       -0.055089556 -0.16784708 -0.28832027 -0.21529108
000100 00 d2 00 3d 00 e4 e6 3d c9 1f 5e be bb 0f 2c be
       0.03145027 0.11273956 -0.21691813 -0.16802876
000110 c1 0d 06 bf 64 76 8c be fc 8d 14 bf fc 54 8f be
       -0.52364737 -0.27434075 -0.5802915 -0.27994525
000120 58 cc 07 be d8 7c 40 be 69 63 85 be 3a b9 b5 be
       -0.13261545 -0.18797624 -0.26052406 -0.3549288
000130 9e 22 a2 be de 74 fe be db a2 11 bf 71 e2 38 3e
       -0.31667036 -0.49698538 -0.5688912 0.1805513
000140 94 06 ff bd 4c 83 52 be 32 fa d0 be 5c 2d cb be
       -0.124524266 -0.20557898 -0.40815884 -0.39683044
000150 a6 74 03 3e 6c 11 72 be 00 ad b2 be c1 bc 1b bf
       0.12837467 -0.23639458 -0.34897614 -0.6083489
000160 11 57 d4 be 97 d3 88 be 00 9d 84 be 27 20 d3 be
       -0.41472676 -0.2672393 -0.25901031 -0.41235468
000170 8d 7f a6 be 39 8b 4b be 00 06 74 3d 43 da 2f bf
       -0.3251919 -0.19877328 0.059576035 -0.68692416
000180 c2 c5 94 be 3f b6 22 bf 91 15 f8 bc 29 ba 6a bd
       -0.29057127 -0.63559335 -0.030283721 -0.057306442
000190 65 31 9f bc 38 14 1e bd 1f 8d 85 be 4b ca 8b be
       -0.019432733 -0.0385935 -0.2608423 -0.27302775
0001a0 37 6c 15 3e 37 5c b4 be b4 f4 bd 3d 68 a6 20 bf
       0.14592062 -0.35226604 0.09275189 -0.62753916
0001b0 8e a4 d4 bc e3 dc 6b be 45 3a c1 bd bc f6 98 be
       -0.025957372 -0.2303348 -0.09434942 -0.29875743
0001c0 0d fd e0 be d9 83 13 bf a0 08 06 be ce 59 a4 3d
       -0.43943062 -0.5762306 -0.13089228 0.080249414
0001d0 e2 dd b5 be 61 2d 85 be 50 57 8b bd e6 9d eb 3d
       -0.35520846 -0.26011184 -0.06803763 0.11504726
0001e0 ab 89 ac be d5 a7 a8 be c3 6f 6c be 71 d8 fe be
       -0.33698782 -0.32940546 -0.23089509 -0.49774507
0001f0 03 1f 59 be bd 66 19 3d 59 8f db bd e8 19 fa bd
       -0.21203236 0.037451494 -0.10720701 -0.122119725
000200 dd 30 b8 3d 42 33 e6 bd 0c 20 0d bf fc 43 c0 be
       0.08993695 -0.112402454 -0.55127025 -0.37551868
000210 bf d5 95 be ac 2d 30 3e 97 95 20 be 38 1c e0 be
       -0.29264638 0.17204922 -0.15682064 -0.4377153
000220 2f 8a 8a 3d 55 5f 26 be 7a 88 af be 61 21 00 be
       0.06764638 -0.16247304 -0.3428381 -0.12512733
000230 c2 ad 62 be 86 58 9c be 86 21 cd be ac a5 d6 bd
       -0.22136596 -0.30536288 -0.4006464 -0.10480818
000240 33 92 bd 3d 70 4d b1 bb b1 31 5b 3e 09 1c 0b bf
       0.09256401 -0.0054108426 0.21405675 -0.54339653
000250 dd 58 b7 bd 6c 57 77 be 1f 55 b2 be 0c ba 37 be
       -0.08952496 -0.24154443 -0.34830567 -0.17942065
000260 a8 68 4d be e1 04 be be ea a8 80 be 96 00 ff be
       -0.20059454 -0.37113097 -0.2512887 -0.49805135
000270 26 74 5e bd 37 bd 07 bd a3 ba be be ab d4 8a 3b
       -0.054309987 -0.033139434 -0.37251768 0.004236778
000280 46 35 46 be 2f 68 fc 3d 9c ca 82 bc 77 82 30 be
       -0.1935626 0.12324559 -0.015965752 -0.17237268
000290 fe ac 94 be 3b bd f3 bc 99 c0 86 be 11 0e a3 be
       -0.29038233 -0.029753318 -0.26318815 -0.3184667
0002a0 5f 19 15 be 29 48 eb be 91 1c b6 be ef a9 40 bd
       -0.1456046 -0.4595349 -0.3556867 -0.04703706
0002b0 01 15 33 be 41 0c da be 87 92 d1 be a1 76 40 be
       -0.17488481 -0.42587474 -0.40932104 -0.18795253
0002c0 ef b4 4d bd 5b 62 16 be a6 a9 69 3b ae 95 02 bf
       -0.05022138 -0.14685957 0.0035654097 -0.51009643
0002d0 00 b7 9f be ec a6 8f bd 40 c3 d5 3e 32 51 0d bf
       -0.31194305 -0.0701426 0.41750526 -0.5520202
0002e0 09 0e 9f be 6c a3 c4 be 99 05 14 be 4e a5 16 be
       -0.31065395 -0.3840593 -0.1445526 -0.14711496
0002f0 be b0 89 be 88 ec 29 bf 06 74 8f be e2 e6 d1 be
       -0.26892656 -0.66376543 -0.28018206 -0.40996462
000300 2f d6 76 be e6 6e 51 be f3 e2 4c 3b ee 52 1e bf
       -0.24105142 -0.2045246 0.0031263202 -0.6184529
000310 0e 69 bf be a2 54 a6 be 56 22 5b bf 7e ae 5f bd
       -0.37384838 -0.32486445 -0.8559927 -0.054609768
000320 73 b8 2e 3e e5 19 1c be c0 4a 80 be f8 5c cc be
       0.1706255 -0.15244253 -0.2505703 -0.3991468
000330 ee 16 8f be c8 39 cf be 27 38 eb be 36 6e bc bd
       -0.2794718 -0.4047377 -0.45941278 -0.092007086
000340 7a 79 9b bd 3a 70 5d be 47 fd 2b 3e 4b c5 b8 be
       -0.07591529 -0.21624842 0.16795836 -0.36088023
000350 7b 56 2e bf ae 44 34 be 8e 28 08 be 09 da 94 be
       -0.6810071 -0.17604324 -0.1329672 -0.29072598
000360 40 36 c6 be f6 5e 6d be 31 39 16 3b b5 be d5 be
       -0.38713264 -0.23180756 0.0022922272 -0.4174706
000370 4f 20 ab bd 41 f3 39 bf 05 aa 86 bd 78 4f 20 be
       -0.08355772 -0.726368 -0.065753974 -0.15655315
000380 15 79 a9 bd 11 90 27 3e dd e8 2c be 1c 79 d9 be
       -0.08275048 0.1636355 -0.16885705 -0.42475212
000390 c8 a6 db be 92 5c 77 be a1 4e 87 3e 4f 65 2d bf
       -0.42900681 -0.24156407 0.26427177 -0.6773271
0003a0 5e fa 5f be 8d ce 83 be df 15 eb bd 6c 16 a1 be
       -0.21872851 -0.25743523 -0.11478781 -0.3146242
0003b0 eb 30 9b be 7c 13 12 be 0b 2b c0 be 87 15 9e be
       -0.3031076 -0.14265245 -0.3753284 -0.308758
0003c0 89 57 6c 3e a7 74 a0 3d ce dd 0f be c6 75 29 be
       0.23080267 0.0783475 -0.14049456 -0.16548833
0003d0 83 af 0b 3c 2d a9 09 bf a1 7d 02 bf cb 50 9f be
       0.008525732 -0.53773767 -0.50972944 -0.31116328
0003e0 a8 ac d6 bd 03 c1 a2 be 72 27 ad be 40 0e 1f be
       -0.1048215 -0.3178788 -0.33819157 -0.1553278
0003f0 0e 1d 0b bf 11 a3 88 be bc ef 67 be b7 74 d6 be
       -0.5434121 -0.2668691 -0.22650045 -0.4188592

layer_2.weight f4 [300, 400]
000000 fe c2 9e 3c eb df 87 3c e5 9d 6a 3d ac f5 01 bd
       0.019380089 0.016586265 0.057279486 -0.03172843
000010 c6 83 77 bb b2 0b bb bd 0f 96 ab 3c 17 7c e9 bc
       -0.0037767752 -0.0913309 0.020945577 -0.028501553
000020 a2 1a a1 3b 1d 93 22 bc 71 b0 4b bc 18 9f 78 bd
       0.004916505 -0.00992277 -0.012432204 -0.0606986
000030 52 8a 33 bd 76 38 c7 bd 91 eb 18 bc 27 2e dd bd
       -0.043833084 -0.09727566 -0.009333507 -0.107998185
000040 21 03 43 ba b3 f0 c5 3c b2 6f 8b bd e6 0b 98 bd
       -0.0007439126 0.024162626 -0.068084136 -0.074241444
000050 f7 cc 00 bd 64 08 10 ba b9 8d 8f 3c 26 93 05 bd
       -0.03144547 -0.00054944144 0.017523633 -0.032611035
000060 d4 70 bf 3d 72 59 ea bc 79 bc 36 bc 12 f0 d0 bc
       0.09347692 -0.028607104 -0.011153334 -0.0255051
000070 86 18 a0 bd 00 1b 93 bd 3d 01 a2 bd 98 46 2f bb
       -0.078171775 -0.07182884 -0.079103924 -0.0026744958
000080 07 b8 4a bd b7 b1 03 3d 9c fa 8a 3c 54 b5 47 bd
       -0.04949191 0.032151904 0.016965203 -0.048756912
000090 e2 2b c2 bd 47 a0 67 3c 7c bd 49 bd cf 96 77 bd
       -0.09481026 0.014137334 -0.049252972 -0.060446557
0000a0 ba ae 1a bd 74 20 c2 bc e7 f7 4e bc 80 63 f7 3c
       -0.03776429 -0.023697115 -0.012632347 0.030198812
0000b0 31 19 13 3e 75 4d 50 3d 77 7d 71 bd f6 cb e6 bd
       0.14365079 0.05085512 -0.058957543 -0.11269371
0000c0 10 4c 79 bd 9d 92 b7 bd 7d 8e 79 bd 8f 3e 3e bd
       -0.060863554 -0.08963511 -0.060926903 -0.04644638
0000d0 df 7a dc bd 0e f2 4b bd 1e 59 d7 3b dd a9 65 bd
       -0.10765623 -0.04979139 0.006571903 -0.056070197
0000e0 62 2b 4b 3d d7 06 cc bb ac e5 1c 3d ee 04 01 be
       0.04960192 -0.0062264013 0.03830497 -0.12599537
0000f0 44 96 4e bd c8 f5 da bd 06 93 21 bd ed 1a 2a be
       -0.050436273 -0.1069141 -0.039446853 -0.16611834
000100 29 b1 16 bd 13 bb a6 bb 2c 0b 33 3d 0a 31 11 bc
       -0.036790047 -0.005088219 0.043711826 -0.0088617895
000110 3a 47 0e bd da ae 3a bd e3 d3 94 bc 31 b8 71 3c
       -0.034735896 -0.045576908 -0.018167442 0.014753387
000120 df 50 8b 3b 51 c8 5b bd c4 0b 64 3a a5 4d a4 bd
       0.004251584 -0.053657833 0.0008699263 -0.08022622
000130 60 ff 90 bd 04 55 71 3d 21 0c b9 bd c5 f8 cf bd
       -0.07079959 0.058918968 -0.090355165 -0.10154871
000140 eb cf ae bb ce 35 cb bc 1c df f2 bc 52 7b b3 bd
       -0.0053348443 -0.02480593 -0.029647402 -0.08763756
000150 89 78 1a bd 2e a1 26 bd 14 ee 11 bc 80 29 f5 3c
       -0.037712608 -0.040681057 -0.00890686 0.029927015
000160 6b b3 07 bd b3 68 b3 bc 12 cb 6b bc 49 3c c5 3c
       -0.03313009 -0.02190051 -0.014391677 0.024076598
000170 84 10 3d 3d 46 ac c4 bd 14 38 5b bc 0e 45 ce bc
       0.04615833 -0.09603171 -0.013380069 -0.025179412
000180 5f d8 15 3d f7 05 8a bc 0a 48 41 bd c1 f2 9f bc
       0.0365833 -0.016848547 -0.047187842 -0.019524934
000190 9a b5 de bd 2d 79 70 bd c0 e7 57 3c a1 56 44 bc
       -0.108744815 -0.058709312 0.013177812 -0.011983545
0001a0 49 40 34 3c 46 56 26 bc 65 94 5a bd d3 66 ac 3c
       0.011001655 -0.010152405 -0.053364176 0.021045124
0001b0 bc 7e 62 bd bc a2 69 3c 9a 7d 0c bd e1 b3 6a bc
       -0.055296645 0.01425999 -0.03429947 -0.014325113
0001c0 25 ce 39 bd b9 16 36 bd ea 17 41 bd 38 17 81 bd
       -0.04536261 -0.044455264 -0.047141947 -0.06303257
0001d0 d9 97 36 bd 8e 8f 92 bc 4a 4b 28 bc 2a 7f 41 bd
       -0.044578407 -0.017890718 -0.010271857 -0.047240414
0001e0 d9 21 99 bd 16 68 2d ba 9b db 97 bd ef 7b 9c bb
       -0.07477159 -0.0006614936 -0.07414933 -0.004775516
0001f0 a2 f0 a6 3c d3 6b 5b bd 30 d8 9b bc 6a b2 bc bd
       0.020378415 -0.053569626 -0.019023985 -0.09213717
000200 9a 2c b8 bc e4 de 00 3c 29 8a 24 bd 79 c4 ef bb
       -0.022482205 0.007865641 -0.040170822 -0.0073171225
000210 d4 73 b9 bc 87 49 80 bd ef 24 1a bd 96 1b 38 bd
       -0.022638239 -0.06264024 -0.03763288 -0.044948183
000220 08 8d ec b9 36 b7 66 3c ce 9f 9a bc 47 58 c7 bc
       -0.00045118504 0.014081767 -0.018875029 -0.024334086
000230 b9 d8 d9 bd 0a 66 d0 bd 55 a2 68 bd 3d 39 28 bd
       -0.1063704 -0.101757124 -0.056795437 -0.04107021
000240 a0 b2 3c 3d a7 0a 67 bd b1 b6 99 bd 79 2e 88 bd
       0.046068788 -0.056406643 -0.07505549 -0.06649489
000250 e6 52 01 3a fd da 3c bd 0c 32 99 bc ca d2 e5 bc
       0.00049333123 -0.04610728 -0.018700622 -0.028054614
000260 fa cc cd 3c ef 2e 81 bd 26 37 af bc f9 f5 a8 bc
       0.025122155 -0.0630778 -0.021388602 -0.020625101
000270 cc 21 8e bd fe ad 6c 3c 95 a8 f5 bc 7e 2a b8 bd
       -0.0694004 0.01444578 -0.029987613 -0.0899248
000280 8a ca 58 bd 36 ea b8 bd f4 e9 cb bd 0d 9f 29 bd
       -0.05292753 -0.09029047 -0.099567324 -0.04141145
000290 d2 79 b1 bc a1 37 be bd 5a f6 ec bd 45 42 c6 bd
       -0.021664534 -0.09287954 -0.11570425 -0.09680609
0002a0 54 da 6b 3c 99 d4 f3 3c c8 86 3b bd 45 63 00 bd
       0.014395315 0.02976446 -0.045782834 -0.03134467
0002b0 0a e7 a6 bc 20 4d bc bd fa 7f 1b 3d 02 60 00 bd
       -0.02037384 -0.09194398 0.037963845 -0.03134156
0002c0 7d 4a 5c 3d 6f f0 09 3b 33 92 e6 bd af ef 56 bd
       0.053781975 0.002104785 -0.11258354 -0.052474674
0002d0 09 87 a7 bc 61 02 07 bc da 54 37 bd ab d6 6a bd
       -0.020450132 -0.008240313 -0.044758655 -0.05733363
0002e0 f1 b3 d7 bd e1 0a a7 3c b2 25 a7 bd 1a 99 d1 bd
       -0.10532368 0.02039093 -0.08161487 -0.1023428
0002f0 b7 cc cd bd 0c 40 a8 bc 33 3b 5a 3d 1e e4 d7 3c
       -0.10048812 -0.020538352 0.053279113 0.026353892
000300 8a 4d 5e bc cd 40 b6 bc 36 1a cc 3b fb 64 d6 3c
       -0.013568291 -0.022247696 0.0062287105 0.026171198
000310 c2 34 47 bd c0 f3 33 3d 07 ec ee bb 47 ed fb bd
       -0.0486343 0.04393363 -0.0072913202 -0.123011164
000320 cd eb 2d 3d 2c a5 19 3d a1 c1 75 bd 6a 7b 52 bd
       0.042461205 0.037511036 -0.059999112 -0.051387228
000330 10 e1 71 bc e3 08 58 3d 92 0c a7 bd f4 5d 3a bd
       -0.014763132 0.05274285 -0.081566945 -0.045499757
000340 ce d6 55 bd 97 7a be bd 41 aa a8 3b d2 90 90 3b
       -0.052206807 -0.09300726 0.005147249 0.004411795
000350 37 f3 dd bc 51 76 2e bd 3e 27 e2 bd 00 12 91 bd
       -0.027093513 -0.042593304 -0.11042641 -0.07083511
000360 df 94 f4 bc 54 a5 f8 bc 0f cb 81 bd 01 0d 14 3a
       -0.029856144 -0.030352272 -0.063375585 0.00056476897
000370 cf 73 7d 3c fb 99 29 bd 8b cd 79 bd 12 8b c6 bc
       0.015469505 -0.041406613 -0.060987037 -0.024236236
000380 b1 e0 8d bd 9a 8b 0c bc 7f fd fe 3c 13 f0 03 be
       -0.06927622 -0.0085782055 0.031126736 -0.1288455
000390 27 b4 74 bd ff c6 9f 3c bf df b1 bd cc 02 02 bd
       -0.05974212 0.019504068 -0.08685254 -0.03174095
0003a0 87 44 68 bd ba d4 8a bd bc cd 68 bc 99 8b 8c 39
       -0.056705978 -0.067788556 -0.014209207 0.0002680689
0003b0 06 65 11 bd 2d 8d 5e bd 9a 06 7a bc c3 88 e1 bd
       -0.035496734 -0.054333854 -0.015260363 -0.11012413
0003c0 a5 be 04 ba 49 7d 4a bd 8b 77 f5 3b 11 6c 19 3d
       -0.00050638086 -0.049435887 0.0074910573 0.037456576
0003d0 77 a8 99 bd b7 37 e7 bc eb 2c 60 bc 2f fe c8 bd
       -0.07502835 -0.02822481 -0.013682584 -0.09814107
0003e0 9b ac b6 3d 13 61 cd bc 9b d5 d4 bc 34 4d 4f bd
       0.08919641 -0.025070703 -0.025980761 -0.050610736
0003f0 59 5a 83 3c 15 4e 0a bd 62 2e c9 bd 64 38 84 bc
       0.016034292 -0.03376587 -0.098233 -0.01614017

layer_2.bias f4 [300]
000000 ca 74 fa ba 70 8a 27 be fc ab 62 bb e9 7b 73 bd
       -0.0019108292 -0.16361403 -0.0034587374 -0.05944434
000010 18 21 6a bd 79 3a 84 be b5 5c 9a bd 14 3e 0f be
       -0.057160467 -0.2582586 -0.07537214 -0.13988525
000020 7e 3b e1 bc 1e b4 55 bc 53 6d ef 3b 80 f3 19 bd
       -0.027494188 -0.013043432 0.0073067336 -0.037585735
000030 2c b2 50 bd 88 12 e5 bc b6 b3 52 bc 56 8c e5 bd
       -0.050951168 -0.027962938 -0.012860229 -0.112084076
000040 5c 9d b8 bd 2c 92 28 be 08 07 4f bd 95 b5 20 bd
       -0.09014389 -0.1646201 -0.050543815 -0.03923567
000050 35 12 ce bd e1 c2 0d be 94 63 12 bd 42 a3 90 bb
       -0.100620665 -0.13843872 -0.035739496 -0.004413993
000060 f4 d5 1a bd 1d 5b a1 bd 59 64 ed bd 10 53 63 bc
       -0.037801698 -0.078787066 -0.115914054 -0.013874784
000070 21 8b 24 3b 8d 85 e1 bc d7 6a 29 bd b6 dc 98 bd
       0.0025107341 -0.027529502 -0.041361656 -0.07463972
000080 e7 68 e8 bd 1c 06 39 bd 7e 8b a1 bd b1 55 65 3b
       -0.113481335 -0.045171842 -0.07887934 0.0034993703
000090 2f fc d0 bd cc ae 44 bd 25 94 69 bc 32 e6 4f bd
       -0.1020435 -0.04801826 -0.014256512 -0.05075664
0000a0 66 fb 5a bd c6 b7 d8 bd ad 56 dd bc 56 58 f3 bc
       -0.05346241 -0.10581927 -0.02701887 -0.029705208
0000b0 c8 ed 98 bc ef ac 72 bd 13 88 3a bd cb 16 99 ba
       -0.01866807 -0.059246954 -0.045539927 -0.0011679766
0000c0 fc 3c 90 bd ea 75 90 bc e3 1c 3f bd 02 1b f3 bd
       -0.07042882 -0.01763435 -0.046658408 -0.11870386
0000d0 3c 7b 7f be 91 4b 0a bd 82 4c 62 bb 30 0a 8d bd
       -0.24949354 -0.033763472 -0.0034530465 -0.06886709
0000e0 f1 3c d2 bd f8 d0 01 bd f4 74 d7 bc d5 e0 ea bb
       -0.1026553 -0.03169343 -0.026300885 -0.0071679153
0000f0 9a e9 8d 3b 5b c2 33 bd 52 9d ca bd 8a ac 1a 3d
       0.004330826 -0.043886524 -0.09893288 0.037762202
000100 31 d6 8c bd d3 46 07 bf 24 b3 17 3e 4a 4a b2 bb
       -0.06876791 -0.52842444 0.1481443 -0.005440985
000110 2e 4e 25 bd b0 eb 3f bd 57 8a 2d bd 26 ac 13 bd
       -0.04035776 -0.04685563 -0.04236826 -0.036052845
000120 53 3c 80 bd 28 a6 1e bd ee 42 87 bc 2b 92 3a be
       -0.06261506 -0.038732678 -0.016511407 -0.18219821
000130 7d 66 2d bd 32 52 39 bd 39 5c 11 3c 3f 0c 1b 3c
       -0.04233407 -0.045244403 0.008872085 0.009463369
000140 32 b3 4c bd f0 5a 7b bb 5f c3 e4 bd 27 5c a3 be
       -0.04997558 -0.0038353764 -0.111700766 -0.31906244
000150 a9 94 5f bd df 48 99 bd 90 02 94 bc 33 3f 9d bd
       -0.054585133 -0.07484602 -0.018067628 -0.0767807
000160 4e 7d ab bd d5 d2 41 bd 8d 40 94 bb 33 4e 6e bd
       -0.08373509 -0.047320206 -0.0045242966 -0.058180045
000170 1f 52 8e bd 83 73 1f bd 9f 8b b6 bd 98 ef 8a be
       -0.06949257 -0.03892852 -0.08913349 -0.2713592
000180 4e 23 38 bd 4b 4a 08 be ff d1 e5 bd e5 fd 8b 3e
       -0.044955544 -0.1330959 -0.11221694 0.27342144
000190 18 69 cb bc 86 4d f4 bc 57 a0 99 bc 15 03 7f 3c
       -0.024830386 -0.029822122 -0.018753214 0.0155647
0001a0 bf 95 b6 bc ca f0 bc bd a7 be c3 bc 57 9e 00 bd
       -0.022288201 -0.09225614 -0.023894621 -0.031401005
0001b0 ff 16 2f bd 75 b8 6d bc bc c8 d1 3b 7f 3f 3c 3e
       -0.04274654 -0.01450931 0.006402103 0.18383597
0001c0 b1 80 7d bd fd 7d 81 bd 33 63 e8 bd 19 c1 c7 bc
       -0.061890308 -0.063228585 -0.11347046 -0.024384068
0001d0 0a fb 5d bc 50 05 01 bc 33 d2 92 bd 0f cd b1 bc
       -0.013548622 -0.007874802 -0.071689986 -0.021704225
0001e0 fa 69 83 bd b5 72 ca bd ae 7f d4 bd 92 1f 8d bd
       -0.06416698 -0.0988516 -0.103759155 -0.06890787
0001f0 78 e4 b5 be 1e 4f b3 bd fc 25 85 bd fe 43 c9 be
       -0.3552587 -0.08755325 -0.065013856 -0.39309686
000200 22 b9 b5 bb 9d 14 d4 bd 56 ee 11 bf 67 87 d5 bc
       -0.005545751 -0.10355494 -0.57004297 -0.026065541
000210 8f c7 64 bd cd 9b 7f bd 2a 23 13 be 5b a5 fb bc
       -0.055854376 -0.062404443 -0.14368883 -0.030718496
000220 6d fd 02 be 53 3a 4b be 12 76 94 bc 09 85 bb bd
       -0.12791987 -0.19846468 -0.018122707 -0.09156234
000230 3a d0 2f 3e 38 bb c2 bd 2f f8 47 bd b0 e1 bb bc
       0.17169276 -0.095083654 -0.04882067 -0.022934765
000240 d0 56 84 bd e7 cd 30 3a d5 64 ce bc f9 82 a8 bd
       -0.06461871 0.0006744549 -0.025194565 -0.08228106
000250 dd a2 14 be c1 c0 8d bd e8 04 9d 3d 54 05 11 bd
       -0.14515252 -0.069215305 0.076669514 -0.035405472
000260 21 f0 1d bd b9 cd 97 bd 23 d8 85 bd b1 d2 7b bd
       -0.038559083 -0.07412285 -0.065353654 -0.061480228
000270 ff e8 4c bd d2 3b 05 3c 10 9a 64 bd 7a 8b 6d bc
       -0.05002689 0.008131938 -0.055810988 -0.014498586
000280 51 9b b6 bc a0 cd 1d 3c 27 28 ad bd d8 e7 8c bd
       -0.022290858 0.009631544 -0.08454924 -0.06880158
000290 c5 c6 40 bd 0c c1 a1 bd ad ca 6a bd 69 f3 7e bd
       -0.04706456 -0.07898149 -0.057322193 -0.062243853
0002a0 a3 7b 56 bd 6b 96 f5 bc 92 58 dc bc b0 4f 8a bd
       -0.052364003 -0.029978951 -0.026897702 -0.067534804
0002b0 3f c9 8c bd 6a fc cd 3c 6e 87 43 bd c1 b6 d0 ba
       -0.06874322 0.025144774 -0.047736578 -0.0015923606
0002c0 30 a7 25 3e a5 15 08 bd 2c 11 32 bd 27 c2 cf 3b
       0.16177058 -0.033223767 -0.043473408 0.0063402834
0002d0 8f 81 77 bd cf d0 84 bd 92 9c 28 be c0 05 a7 bd
       -0.06042629 -0.064851396 -0.16465977 -0.081553936
0002e0 10 61 2d bc 50 80 34 bd 60 eb 86 3e bb 4b 0a bc
       -0.010582224 -0.04406768 0.26351452 -0.008440907
0002f0 a2 9e 7c bb 0f a9 05 be bd 7f 6f bd 2c 23 94 bd
       -0.00385467 -0.13052772 -0.05847143 -0.07233271
000300 2c a0 95 bd 6e ee 8a bd e1 90 2b bd d5 57 63 bd
       -0.07305941 -0.06783758 -0.041886214 -0.055503685
000310 1b 66 77 bd a8 6e 37 bd 43 02 b4 bd 12 00 bd bd
       -0.06040011 -0.044783264 -0.08789494 -0.09228529
000320 99 37 6f bd 4e 83 76 bd a0 e5 6e bd 93 f3 dd bb
       -0.05840263 -0.060183816 -0.058324456 -0.006773421
000330 8f 57 35 bd ab b4 a4 bd d8 86 10 be 24 e9 01 bd
       -0.044272956 -0.08042272 -0.14113939 -0.03171648
000340 7e f0 9b bd 21 61 05 bd 54 2e b4 bd 5e c6 54 3e
       -0.076142296 -0.032563332 -0.08797899 0.20778796
000350 51 de 4f bd 29 a8 aa bd 22 9e b0 bd a8 d1 34 3c
       -0.050749127 -0.08332855 -0.086239114 0.011036314
000360 aa 7b 65 bd de a4 bf bd c7 b0 bc 3c 26 5e aa bb
       -0.05602614 -0.09357618 0.023033513 -0.0051992116
000370 bd bf d7 bd 16 b6 34 bd d8 2e f4 bb cf bd 37 be
       -0.10534618 -0.044118963 -0.0074518733 -0.179435
000380 fd 1d ab bd f2 76 19 bd 92 9c 82 bd 7a a2 3d 3e
       -0.08355329 -0.03746695 -0.0637752 0.18519011
000390 9c 5e bd 3e 1e 9e be bc 91 77 05 be a0 22 eb bd
       0.36986244 -0.023268756 -0.13033892 -0.114812136
0003a0 50 4f 67 bd 44 1a 44 bd cf fc 6f bd 96 b6 fe bc
       -0.056472123 -0.04787661 -0.058590706 -0.031092923
0003b0 53 f5 74 bd 51 e7 8c 3b ed 44 f3 bc 45 c6 ca bc
       -0.059804272 0.004300036 -0.029695952 -0.024752745
0003c0 6c 90 f2 bb 96 42 ec 3c f0 53 84 bd 2b a5 dd 3a
       -0.0074024703 0.028840344 -0.06461322 0.0016910186
0003d0 97 74 82 bd 77 c8 a6 bd 82 c3 3c bd eb eb ab bd
       -0.06369894 -0.081437044 -0.04608489 -0.08394607
0003e0 fb 95 9c 3d 82 70 8c bd 45 00 17 bd 27 15 c1 b9
       0.07645794 -0.06857397 -0.03686549 -0.00036827588
0003f0 0f a7 cb bd 2b 3b 1e 3e 48 26 b4 be 90 57 78 bd
       -0.09943973 0.15452258 -0.35185456 -0.06063038

layer_3.weight f4 [1, 300]
000000 83 c2 04 ba c3 09 53 be fc 9c 3d 3d 2f 49 8e bd
       -0.0005064385 -0.20609193 0.04629229 -0.069475524
000010 d6 0b 3d 3b 4b bf 65 bd 83 e7 13 be f3 76 5f bf
       0.0028846166 -0.056090634 -0.14443783 -0.8729088
000020 59 e7 35 bc de 2a d6 39 67 44 b2 3b 49 b6 f8 bc
       -0.011102521 0.000408492 0.005440283 -0.030360358
000030 2b 27 d0 3b 28 24 29 3b 6f 26 53 be c8 ea 04 be
       0.0063523254 0.0025808904 -0.2062013 -0.12980187
000040 9d 5e 55 3b 73 f0 07 be 20 55 4b bc 5d 76 e7 3d
       0.0032557615 -0.13275318 -0.012410432 0.11301873
000050 81 43 06 bc de f0 b8 3a 26 a7 bf bb bf 93 ca bc
       -0.008194805 0.001410987 -0.005848783 -0.024728654
000060 6d c9 99 bc f9 c9 51 bc 9d 19 1e bc 6b 9b 2e 3c
       -0.018772805 -0.012804502 -0.009649661 0.010657172
000070 58 55 b9 3e 25 5c 90 3c be 3e 80 bc 94 54 2d bc
       0.36197925 0.017622063 -0.015654918 -0.010579247
000080 41 c2 24 be 62 d7 dc bc a0 28 cd bc e0 f7 e2 3c
       -0.16089727 -0.026958171 -0.025043786 0.027706087
000090 5c e3 02 3d f0 3e 42 3c 77 11 a4 bc 6c 3d d9 3c
       0.031955108 0.011855826 -0.02002786 0.026518546
0000a0 8c 2a 20 3b f9 16 bb 3b 00 a7 1e 3c 71 2e 25 3d
       0.0024439422 0.0057095257 0.009683371 0.040327493
0000b0 99 02 f0 bc cb b5 87 3c 07 5f 5b bd 0b db 0e 3c
       -0.029298114 0.016566178 -0.053557422 0.008719216
0000c0 79 f0 b1 3c 5d c7 c1 3d b7 69 23 3d 03 04 16 be
       0.021721112 0.09461854 0.03989574 -0.14649968
0000d0 7a c0 0b 40 89 c4 72 bd b5 7a d7 3d 57 cb 32 bd
       2.1836228 -0.05926946 0.105214514 -0.04365095
0000e0 33 d6 bc bd 25 a4 97 bc 0d 3e e8 3c b5 ed 00 3c
       -0.09220543 -0.018510887 0.0283499 0.007869174
0000f0 5a 37 43 3c d7 71 bc 3b bb e3 81 3b ec 66 3a 3f
       0.011915052 0.0057508755 0.003963915 0.72813296
000100 c9 8c b5 bc 89 de 19 be 61 11 21 bd 26 d4 02 3c
       -0.022161858 -0.15026297 -0.039323214 0.00798515
000110 c8 b5 13 bc aa 89 8f 3c 68 25 ed bc 83 91 37 3c
       -0.009015508 0.017521698 -0.0289485 0.011204126
000120 d5 5f da bc d3 ad 3a 3c 91 6f ee bb 01 f1 42 bd
       -0.026657024 0.011393982 -0.0072764833 -0.04759312
000130 cd 3a ec bc 2b 46 68 3c e1 57 0b bd 09 79 07 3c
       -0.028836632 0.014176886 -0.034019355 0.008268603
000140 b2 f7 0c be 21 0b 57 3c 1b df a2 bd b9 bd 07 40
       -0.13766363 0.013125212 -0.0795271 2.1209548
000150 69 9c 32 3c 71 73 94 bd d1 7b 28 3a ec 96 e0 bc
       0.010901549 -0.07248581 0.00064271415 -0.027415715
000160 21 b7 22 3c 30 ab 52 bd 24 70 29 bc de f8 7f bd
       0.009931357 -0.05143279 -0.010341678 -0.062493198
000170 41 81 53 3d 54 9c 0b bb 5b c4 05 bd 21 f8 82 bd
       0.051636938 -0.0021302896 -0.032657962 -0.06394983
000180 1b 64 eb 3e 26 10 17 3e 8a 66 50 3b 10 b8 d5 bd
       0.45974812 0.14752254 0.00317994 -0.10435498
000190 31 57 8c bb 7f 83 a3 3c 25 2e 65 bc 89 69 ab 39
       -0.004282855 0.019960163 -0.0139880525 0.0003269429
0001a0 aa f5 d6 3d 5d 99 84 bc 0f a6 93 3d d6 6b e4 3c
       0.104960755 -0.01618641 0.072094075 0.027883451
0001b0 cc 82 89 bb e5 9c 72 bc 0a 20 3c 3d c2 34 e8 bf
       -0.0041965004 -0.014807914 0.045928992 -1.81411
0001c0 20 c3 b2 bc 93 93 40 3c 84 46 f5 bd 25 fd 73 ba
       -0.021821558 0.011753934 -0.119763404 -0.0009307436
0001d0 e0 98 bd bd 09 c6 62 3b eb 4a 5d 3c 96 a7 f7 bc
       -0.09257674 0.0034602901 0.013506631 -0.030231278
0001e0 b5 b8 76 bc a5 75 85 3c 31 90 14 3d 61 88 6e 3c
       -0.015058686 0.016291449 0.036270324 0.014558882
0001f0 65 97 21 3f df 9b f1 3d 1d 0f bc 39 00 1d 32 bf
       0.63121635 0.11797308 0.00035869415 -0.695755
000200 88 b1 bb 3f ed da c7 ba 9c 12 37 3d 4e e0 a7 bc
       1.4663553 -0.001524774 0.04469548 -0.020492699
000210 9e d2 2d bd fe 38 ea 3d 6f 9f f5 bd 7d 6e 67 3c
       -0.04243719 0.11436652 -0.119933 0.014125464
000220 c4 c0 93 be c6 b1 0b 3e b6 ee 20 bd 54 ce b8 3c
       -0.28858006 0.13642034 -0.039290152 0.022559322
000230 26 21 a9 40 33 3f 5a bd c4 98 18 bc e7 c4 d8 3c
       5.2852964 -0.053282928 -0.009313766 0.026461078
000240 56 a9 a8 3c 80 4d ef bc 81 56 8c be b3 5b d1 bb
       0.020588558 -0.02921176 -0.27409747 -0.006389105
000250 e7 ac 58 bd a0 b4 07 3d 81 92 38 3d 8b ae 8c bc
       -0.052899268 0.03313124 0.045061592 -0.017173072
000260 86 0b 3c bd 45 e5 e0 bb 2f 23 00 bd df 38 35 3d
       -0.045909427 -0.0068632686 -0.031283554 0.04424369
000270 81 12 f8 3c 21 6f 82 bc 6f a7 29 3c 85 2a f7 3a
       0.03028226 -0.015922131 0.010354861 0.0018857276
000280 1b 89 a8 3b d0 9e 44 3b 4a fb b4 3b df 32 65 ba
       0.0051432974 0.0030001886 0.00552312 -0.0008743237
000290 79 37 21 b9 05 82 32 bc 4f 13 3d bc 81 2c 70 3c
       -0.00015374822 -0.010895257 -0.011540248 0.014659048
0002a0 1d ea 45 bd a3 36 a9 bc f9 05 56 3b d6 80 06 3c
       -0.04831897 -0.020655936 0.0032657369 0.008209428
0002b0 14 bc b0 bc 9d 57 a5 bc 70 d1 d8 3c 2e 78 31 3b
       -0.021574058 -0.020183379 0.026467055 0.002707969
0002c0 48 af 96 be cf 54 90 3c da 17 a0 bc 54 8a c1 3b
       -0.29430604 0.017618565 -0.019542623 0.0059063826
0002d0 9c 2c 8b 3c 1c c0 f4 bc 67 4e b2 bd 3a 8f e8 bb
       0.016989045 -0.029876761 -0.0870636 -0.007097152
0002e0 a4 c4 24 bc 4d 7a 20 bb 55 88 82 bf 39 3a 17 bc
       -0.010056648 -0.002448696 -1.0197855 -0.00923019
0002f0 5b ee 74 3b 97 30 13 be cc 91 fa 3a 55 16 92 be
       0.0037373516 -0.14374004 0.0019116937 -0.28532663
000300 1e 1b 65 bd c2 38 97 bc c3 4b 08 bc b0 ca 8c 3d
       -0.055934064 -0.018459681 -0.008318844 0.06874597
000310 52 2e 44 3e 94 0f f6 3d 11 42 41 bc 14 dc f9 bc
       0.19158295 0.1201469 -0.011795537 -0.03050045
000320 9f 02 cd bc 24 d2 7d bd 3d 27 c4 3c 2d 28 e5 bc
       -0.025025664 -0.061967984 0.023944492 -0.027973259
000330 11 28 5f bd f4 85 26 3d 90 0d b5 3d 9d 30 e5 bb
       -0.05448157 0.04065509 0.088404775 -0.0069943205
000340 37 19 eb bb 88 cb 86 3c cd 93 09 bd 7f 55 8e bf
       -0.0071746367 0.016454473 -0.03358822 -1.1119841
000350 90 f0 d6 b9 de 99 da 3c c8 ee 28 3c 76 d8 1f 3d
       -0.00040996494 0.026684698 0.010310836 0.039024793
000360 19 d9 3d bc e0 3e d0 3c 57 ed be 3e 30 b6 23 bd
       -0.011587405 0.025420606 0.3729045 -0.03996867
000370 8e 80 60 bd dd b6 a5 3b 8e 43 0b bd a6 86 8c bc
       -0.0548101 0.0050571994 -0.033999972 -0.01715405
000380 61 a8 5b 3b 20 83 00 bd 08 5f 16 3d 06 cd 8b bf
       0.003351711 -0.03137505 0.036711723 -1.0921943
000390 cd 95 e2 be f9 0c 47 3c 19 5b 9a bd 9b 2c 8a 39
       -0.44254914 0.012149089 -0.07536907 0.00026354645
0003a0 56 fe 0c bc ad a9 6c bd 0d b5 3f 3b bc 1b 00 3b
       -0.00860556 -0.057779003 0.0029252202 0.001954778
0003b0 1c 21 6d bb 2d 8f 2c 3d 76 69 aa 3c b5 00 47 bc
       -0.0036183065 0.04212873 0.02080224 -0.012146165
0003c0 2b 7b b7 bb 9b f7 34 3f 22 5d 41 bd 71 10 55 bc
       -0.0055993996 0.70690316 -0.04720796 -0.013004408
0003d0 de 71 6a bc f4 cc 28 3c 47 0a 41 bd c5 69 dc 3c
       -0.014309375 0.010302771 -0.047128942 0.026905904
0003e0 31 de 9a be 4d e1 50 3b b8 c4 ad bc db a7 0f bd
       -0.30247644 0.003187257 -0.021211967 -0.03507219
0003f0 6f 37 1d bd 7f 5b ab 3e cf 02 f6 be e7 92 a5 bb
       -0.038382944 0.33468243 -0.48049018 -0.0050529125
